models/single_conv.pth (torch, 6192 bytes, 2 tensors)

weight f4 [32, 3, 3, 3]
0	0x3df3649e	0.118844256
1	0xbd6f9fe8	-0.058502108
2	0xbda71b2a	-0.08159478
3	0x3daee0b6	0.08538954
4	0xbd9f71b1	-0.07785357
5	0xbc67c6c0	-0.014146507
6	0xbe05f3a1	-0.13081218
7	0xbdb8819e	-0.090090975
8	0xbcd50b18	-0.026006266
9	0xbde3144e	-0.11087857
10	0xbd35f8a8	-0.04442659
11	0x3c50e030	0.012748763
12	0x3df9903a	0.12185712
13	0xbe1535c4	-0.14571291
14	0xbd3a4710	-0.045477927
15	0x3dc89306	0.097936675
16	0x3dcf7cee	0.1013125
17	0x3d3a3404	0.045459762
18	0xbe17e1d0	-0.14832234
19	0xbe44fc0c	-0.19236773
20	0xbe3fda34	-0.18735582
21	0x3dc3648a	0.09540661
22	0x3b0d26c0	0.002153799
23	0xbe0350b2	-0.12823752
24	0x3da33682	0.07969381
25	0x3dc26d6e	0.09493528
26	0xbd2eac98	-0.042645067
27	0x3e25c933	0.16190033
28	0x3d23dd80	0.04000616
29	0xbdd2b4a8	-0.10288364
30	0x3d2df250	0.042467415
31	0x3e17282b	0.14761417
32	0x3dc8857e	0.097910866
33	0xbe39a603	-0.18129735
34	0x3d6e3a9c	0.058161363
35	0x3dba7456	0.091042206
36	0xbe2a96cc	-0.16659087
37	0x3e364ced	0.17802782
38	0xbe0c6601	-0.13710786
39	0xbde7b8f9	-0.113145776
40	0xbdfe98f1	-0.12431515
41	0x3c6aede0	0.01433894
42	0x3d86dcd2	0.06585087
43	0x3ccaf028	0.024772719
44	0xbe1fd1b9	-0.15607347
45	0x3dadb196	0.084811375
46	0x3d2d90dc	0.042374477
47	0xbb286f40	-0.0025701076
48	0xbe30f3b2	-0.17280462
49	0xbdf32d06	-0.11873822
50	0x3dad2722	0.084547296
51	0x3d60add8	0.05485329
52	0x3da7dbb2	0.081962004
53	0xbd715e38	-0.058927745
54	0x3d149734	0.03627701
55	0x3e096067	0.13415681
56	0x3df1f75e	0.1181476
57	0xbdc4dac1	-0.096120365
58	0x3e042063	0.1290298
59	0xbe2dad34	-0.16960603
60	0x3dde3976	0.108508036
61	0xbdc8a488	-0.09797007
62	0xbe2509a7	-0.16116963
63	0xbc37aff0	-0.01121138
64	0x3c802a08	0.015645042
65	0xbd2143e8	-0.0393714
66	0xbe19c168	-0.15015185
67	0x3d9a474e	0.075331315
68	0xbca291f8	-0.019844994
69	0xbcae9900	-0.02131319
70	0x3da9b5ba	0.08286615
71	0xbd78cd04	-0.060742393
72	0x3d93a4fa	0.07209201
73	0xbe399dac	-0.18126553
74	0xbe434a1f	-0.19071244
75	0x3d40bb94	0.04705389
76	0x3dde8f12	0.10867132
77	0x3e207551	0.15669753
78	0xbe0ad8f3	-0.13559322
79	0xbe360888	-0.17776692
80	0xbdf387b4	-0.11891118
81	0x3e169b5d	0.14707704
82	0xbd907e88	-0.07055384
83	0xbc85f870	-0.016353816
84	0x3d1356cc	0.035971448
85	0x3dfcfb2e	0.12352596
86	0xbe1b70e3	-0.15179782
87	0xbe0737ab	-0.1320483
88	0x3e32ebe9	0.17472805
89	0x3dd98a2e	0.10622059
90	0x3d57047c	0.05249451
91	0x3d6746d0	0.056464016
92	0x3e3b7135	0.18304904
93	0x3e35f823	0.17770438
94	0xbd37c268	-0.044863135
95	0x3d1068ac	0.035256073
96	0xbd1b1b80	-0.037868023
97	0x3ca95170	0.020668715
98	0x3dd5d43e	0.104408726
99	0x3d6ff184	0.058579937
100	0xbcabe1a8	-0.020981625
101	0x3e08aa5b	0.13346235
102	0x3d7acff4	0.061233476
103	0xbdeb2256	-0.114811584
104	0xbd7d3b5c	-0.061824188
105	0x3d2c3dcc	0.04205112
106	0xbd8091ac	-0.06277785
107	0xbdc88ed5	-0.09792868
108	0xbe18386d	-0.14865275
109	0xbdd4a19b	-0.10382386
110	0xbde02199	-0.10943908
111	0xbe0aa48f	-0.13539337
112	0x3ddeb31e	0.10874008
113	0x3dd37676	0.10325329
114	0xbd62cf8c	-0.055373713
115	0x3e076dc1	0.13225462
116	0xbd637974	-0.05553575
117	0xbda70c49	-0.0815664
118	0x3b29a740	0.0025887042
119	0xbddbc9ff	-0.10731887
120	0x3ca681c8	0.020325556
121	0x3dc77efe	0.09741019
122	0x3c95fba8	0.018308476
123	0xbdd21577	-0.10258
124	0xbdf8fbaa	-0.12157376
125	0x3e17b743	0.14816003
126	0x3dea9b8e	0.11455451
127	0xbe0a8d88	-0.13530552
128	0x3dfd585e	0.1237037
129	0xbd513e28	-0.051084667
130	0xbe31c039	-0.17358483
131	0x3e3d599f	0.18491219
132	0xbdef4edb	-0.11684962
133	0xbdcbd364	-0.09952429
134	0x3e2c6155	0.16834004
135	0xbe1d53fe	-0.15364072
136	0x3da86afe	0.08223532
137	0x3dd6dd2a	0.104914024
138	0x3e2030fd	0.15643688
139	0xbd2f7e7c	-0.042845234
140	0xbdd2582f	-0.10270726
141	0x3d88d6c2	0.06681587
142	0x3ca6aa70	0.020344943
143	0x3de1fb02	0.11034204
144	0xbe2a8ba8	-0.16654837
145	0xbdffc5d0	-0.124889016
146	0xbd62e658	-0.055395454
147	0xbdb6aa61	-0.08919216
148	0xbe3378a2	-0.17526487
149	0xbd83f80c	-0.064437956
150	0xbe04e24a	-0.12976947
151	0x3e19792b	0.14987628
152	0xbd978aae	-0.07399498
153	0x3d2b751c	0.04185973
154	0xbd84345c	-0.06455299
155	0xbd440c58	-0.047863334
156	0x3d76ff14	0.060301855
157	0xbd1e7bf0	-0.038692415
158	0xbdace792	-0.08442606
159	0xbe1cc854	-0.15310794
160	0xbda886cd	-0.08228836
161	0xbe28c946	-0.1648303
162	0x3e44a22d	0.1920249
163	0xbcd527b8	-0.026019916
164	0xbdcd8d26	-0.100366876
165	0xbdafa778	-0.08576864
166	0x3e267291	0.16254641
167	0xbded190d	-0.11577044
168	0x3e36dcfb	0.17857735
169	0x3e4349e3	0.19071154
170	0xbe0d0218	-0.1377033
171	0xbda360a6	-0.079774186
172	0x3e07d24d	0.13263817
173	0x3cad4f38	0.021155939
174	0x3d13bfa8	0.03607145
175	0x3d84170e	0.0644971
176	0xbd1863b8	-0.037204474
177	0xbdfc11da	-0.123080924
178	0xbd4946e0	-0.049139857
179	0xbdf27769	-0.11839182
180	0xbdcc9cc4	-0.09990838
181	0x3cd50228	0.026002005
182	0x3e2d34b1	0.16914631
183	0x3e3bb0d3	0.18329172
184	0x3d14199c	0.036157236
185	0xbd29c514	-0.041447714
186	0xbe038a1c	-0.12845653
187	0xbdd7e54c	-0.10541782
188	0x3e0b45c1	0.13600828
189	0x3ca05fa0	0.019576848
190	0x3e051317	0.12995563
191	0xbe066902	-0.13125995
192	0x3df237fa	0.11827083
193	0x3deb48de	0.11488508
194	0x3e3ba5b1	0.18324925
195	0xbd9401d4	-0.07226911
196	0xbe02b1af	-0.12763093
197	0x3d08fa5c	0.033441886
198	0x3dee1a6a	0.11626132
199	0xbcdb8470	-0.02679655
200	0x3dbfe486	0.09369759
201	0x3e365b3f	0.17808245
202	0xbe0e2966	-0.1388298
203	0xbc9e71d8	-0.019341394
204	0xbdbfe706	-0.09370236
205	0x3dab3aba	0.083608106
206	0xbd912342	-0.07086803
207	0x3dd3b7ca	0.10337789
208	0xbe24b898	-0.16086042
209	0xbe26787f	-0.16256903
210	0x3e0cf415	0.13764985
211	0xbdba7136	-0.091036245
212	0x3dc02392	0.093817845
213	0xbda64706	-0.081190154
214	0xbd72677c	-0.05918072
215	0xbe26d64e	-0.16292688
216	0xbe353b80	-0.17698479
217	0xbe1e48a3	-0.15457396
218	0xbd08b4ec	-0.033375666
219	0x3da1675a	0.07881041
220	0x3be2e680	0.0069244504
221	0xbdc1ee2f	-0.09469258
222	0xbe2d7255	-0.16938145
223	0xbd875cf8	-0.06609529
224	0x3dccfc6e	0.10009085
225	0xbd29dcf0	-0.041470468
226	0xbd5fb988	-0.054620296
227	0x3d2a6f4c	0.041610047
228	0x3df46f8a	0.11935337
229	0x3cda9908	0.0266843
230	0xbe26bf7b	-0.16283982
231	0x3d5abd2c	0.053403065
232	0xbd147684	-0.036245838
233	0xbde99232	-0.11404838
234	0xbd10fdec	-0.03539841
235	0xbe1cb193	-0.15302114
236	0xbc7047c0	-0.014665544
237	0x3cb47d48	0.022032395
238	0x3d0614c0	0.032734632
239	0xbe0a74cf	-0.13521121
240	0xbe091246	-0.13385877
241	0x3e1ec86f	0.15506147
242	0xbc0d06b0	-0.008607551
243	0xbde18a93	-0.11012759
244	0xbe44e8c2	-0.19229415
245	0x3d19ac3c	0.03751777
246	0x3e0994b5	0.13435633
247	0x3da2eef6	0.079557344
248	0xbe0f338a	-0.13984504
249	0xbd157e74	-0.03649755
250	0xbd936bd0	-0.07198298
251	0xbe2a5681	-0.16634561
252	0x3d993002	0.0747986
253	0xbd0e0c10	-0.034679472
254	0x3df392c6	0.11893229
255	0xbdaec35b	-0.08533355

bias f4 [32]
0	0x3e096bd5	0.13420041
1	0x3e266aaf	0.16251634
2	0xbd522fb4	-0.051315024
3	0x3d2df5d8	0.042470783
4	0xbd615e9c	-0.055021867
5	0x3e1a28f7	0.1505469
6	0xbb9b7e60	-0.0047452897
7	0x3e27a9c7	0.16373359
8	0x3d6a95dc	0.057271823
9	0xbdd41cc8	-0.10357052
10	0xbc46a8f0	-0.012125239
11	0x3e2e9d6d	0.1705224
12	0xbd1fcfa0	-0.039016366
13	0xbda0cb45	-0.078512706
14	0x3d311f98	0.04324302
15	0x3e2fcda3	0.17168288
16	0x3e3d7c37	0.18504415
17	0x3b858200	0.004074335
18	0xbde42d14	-0.111414105
19	0x3cda7278	0.026665911
20	0x3d5681a8	0.052369744
21	0x3e3a7d95	0.18211968
22	0x3d6cebdc	0.05784212
23	0xbe01118d	-0.12604351
24	0xbe3f1950	-0.18662
25	0xbd5d6fd0	-0.05406171
26	0x3d9ac85e	0.07557748
27	0xbd0a0264	-0.033693686
28	0x3dfc2716	0.123121426
29	0xbdbf5cc0	-0.093438625
30	0x3deadf2a	0.114683464
31	0xbe329f1e	-0.17443511
