models/traintest_30.pth (torch, 589374 bytes, 10 tensors)

weight f4 [32, 3, 5, 5]
0.21597078 0.11471502 -0.018247271 0.109078445 0.06914604 -0.072943114 -0.0841562 -0.10766887
-0.21164948 -0.0991921 -0.08462295 -0.0021076475 0.02322474 -0.15798056 -0.10124037 -0.11797227
-0.062248707 -0.11911023 0.20759223 -0.03852506 -0.08535474 -0.20755756 -0.0069029205 0.1465034
0.034951136 0.1365246 -0.07051788 -0.1136777 -0.039072014 0.12480764 0.015555711 0.046207473
0.010502562 -0.2930207 -0.08544579 0.060221918 0.07566701 -0.076848626 -0.096189156 0.08680823
0.07408995 -0.16459163 0.024230229 0.22111735 0.14471129 -0.0543256 -0.21620955 -0.016490545
0.1339123 0.010258715 0.06173059 -0.11992319 -0.078817375 -0.1836981 0.030214628 0.090287976
0.045752738 -0.19309303 -0.3091841 -0.009795048 -0.022773245 0.044492885 0.019355003 -0.11588072
-0.08337143 0.08119053 -0.066503346 0.15321527 0.30652165 0.12648033 -0.020717677 0.011545298
0.11036736 0.22229193 0.15954241 -0.008784518 -0.010321961 0.22283265 -0.021216586 -0.07091955
-0.025860118 -0.28949314 0.22299166 0.21890278 -0.061106935 -0.17666139 -0.26716048 -0.08278844
0.27726048 0.11370701 0.17234014 0.029651107 -0.21153131 -0.30276442 -0.05727806 -0.03248368
0.29032713 -0.026287537 -0.2446682 -0.036215242 -0.15628459 0.06997491 0.15869077 0.021635951
-0.069647774 -0.079107046 -0.22763793 0.076106586 0.35772362 -0.009482741 -0.1275814 -0.055128712
-0.13107152 0.28797114 0.20025483 0.24566299 0.21489528 -0.12946217 -0.25461277 0.13789763
0.15311337 0.30271778 -0.024525845 -0.25745538 -0.10247906 -0.16284826 0.032286096 0.159603
-0.008973955 -0.18702863 -0.009490664 -0.23411551 0.0056546354 0.2033343 -0.13634075 -0.05689858
-0.045939505 -0.21210568 0.18157852 0.13923383 0.08958304 0.22097687 -0.00846092 -0.27876407
-0.042735934 -0.03594724 0.2909053 0.012280723 -0.08698848 -0.16732366 -0.10782535 0.23572129
-0.14759088 -0.11419643 -0.12873831 0.20063947 -0.10001642 -0.57096076 -0.2997756 0.14083727
-0.14473614 -0.56038606 -0.30702972 0.3487655 0.21708795 -0.35570556 -0.19892454 0.2147885
0.26691058 -0.1990172 -0.051326346 0.118637 0.13542649 -0.23247302 -0.0069684233 0.028187294
0.27600306 -0.029790517 -0.09606476 0.11488506 0.4298723 0.17068994 -0.31691656 0.018272022
0.3225973 0.17209795 -0.34473318 -0.15871538 0.52583736 0.28009364 -0.046484012 -0.082905665
0.4685851 0.28044212 -0.07998547 0.09385222 0.33617634 0.15580952 -0.20760308 -0.05028347
0.042968176 0.36438882 -0.12872331 -0.1585519 -0.12188133 0.35052562 0.018961033 -0.42502624
-0.15550432 0.17865378 -0.09273903 -0.44406927 -0.053474903 0.2966243 0.078527756 -0.29161584
-0.022697989 0.323669 0.13492781 -0.38648435 -0.10624186 0.07358927 0.116136685 -0.17957379
-0.24764562 -0.091438934 0.19348042 0.001512345 0.021889947 -0.08694258 -0.23809806 0.13678901
0.42702857 0.065742135 -0.19446003 -0.2267558 -0.2361218 0.5986462 0.2693469 -0.34322953
-0.040843148 -0.29092145 0.30658913 0.33691585 -0.12936454 -0.043121286 -0.26706862 0.10208561
0.21333182 -0.010507241 0.022666367 0.026746526 0.13387708 0.0063302503 -0.10240885 -0.19310485
00000000: 7227 5d3e b5ef ea3d 4d7b 95bc 8564 df3d
00000010: 709c 8d3d 3363 95bd 165a acbd 7f81 dcbd
00000020: a4ba 58be 3a25 cbbd cc4e adbd 7520 0abb
00000030: cf41 be3c a8c5 21be 1c57 cfbd 729b f1bd
00000040: 80f8 7ebd 10f0 f3bd 0f93 543e 74cc 1dbd
00000050: 77ce aebd f889 54be e531 e2bb fd04 163e
00000060: ec28 0f3d 1bcd 0b3e ae6b 90bd dbcf e8bd
00000070: fa09 20bd 269b ff3d 62dd 7e3c 0c44 3d3d
00000080: f012 2c3c cf06 96be 34fe aebd 42ab 763d
00000090: 4ef7 9a3d d062 9dbd d2fe c4bd 83c8 b13d
000000a0: 79bc 973d b58a 28be 797e c63c 966c 623e
000000b0: 322f 143e 8584 5ebd 0966 5dbe 2e17 87bc
000000c0: 4e20 093e 2b14 283c 37d9 7c3d 4a9a f5bd
000000d0: 016b a1bd 5b1b 3cbe ab84 f73c e7e8 b83d
000000e0: 3967 3b3d 2eba 45be 614d 9ebe 697b 20bc
000000f0: f58e babc 2c3e 363d 628e 9e3c df52 edbd
00000100: a4be aabd 3847 a63d e832 88bd 77e4 1c3e
00000110: 68f0 9c3e 0f84 013e 1eb8 a9bc 7d28 3d3c
00000120: 4808 e23d 7fa0 633e 165f 233e f0ec 0fbc
00000130: 711d 29bc 3e2e 643e 68ce adbc 453e 91bd
00000140: 99d8 d3bc 7238 94be ed57 643e 0d28 603e
00000150: 444b 7abd b9e6 34be 42c9 88be fc8c a9bd
00000160: 16f5 8d3e 39df e83d ef79 303e e1e6 f23c
00000170: aa9b 58be f003 9bbe 669c 6abd 9b0d 05bd
00000180: c2a5 943e f658 d7bc 4d8a 7abe 6f56 14bd
00000190: 1109 20be 014f 8f3d d57f 223e e13d b13c
000001a0: 7ea3 8ebd e002 a2bd eb19 69be c5dd 9b3d
000001b0: 8d27 b73e 805d 1bbc b3a4 02be a5ce 61bd
000001c0: 9d37 06be f470 933e 9a0f 4d3e 148f 7b3e
000001d0: 820d 5c3e bb91 04be 9b5c 82be 0935 0d3e
000001e0: c0c9 1c3e d3fd 9a3e 6dea c8bc 31d1 83be
000001f0: 8be0 d1bd b2c1 26be 6d3e 043d f86e 233e
00000200: 7f07 13bc 6f84 3fbe bb7e 1bbc fabb 6fbe
00000210: 854a b93b de36 503e e99c 0bbe 7c0e 69bd
00000220: 102b 3cbd 3b32 59be b8ef 393e 5093 0e3e
00000230: 5077 b73d c347 623e ac9f 0abc 2aba 8ebe
00000240: e00b 2fbd 6a3d 13bd 8af1 943e 1635 493c
00000250: 0427 b2bd e556 2bbe 89d3 dcbd ec60 713e
00000260: 1022 17be d1df e9bd fad3 03be 6f74 4d3e
00000270: 69d5 ccbd 7c2a 12bf 307c 99be a537 103e
00000280: b635 14be 7675 0fbf 0033 9dbe 6491 b23e
00000290: 4e4c 5e3e 0a1f b6be e0b2 4bbe 84f1 5b3e
000002a0: 81a8 883e 2acb 4bbe 933b 52bd f5f7 f23d
000002b0: 3ead 0a3e 680d 6ebe 5f57 e4bb 0ae9 e63c
000002c0: 4650 8d3e 3e0b f4bc 9abd c4bd dc48 eb3d
000002d0: 3918 dc3e 58c9 2e3e e342 a2be 35af 953c
000002e0: 792b a53e 723a 303e de80 b0be 4986 22be
000002f0: 479d 063f 6f68 8f3e 0566 3ebd 72ca a9bd
00000300: 63ea ef3e 1c96 8f3e 6ccf a3bd 9835 c03d
00000310: 4e1f ac3e 888c 1f3e e795 54be 0af6 4dbd
00000320: 66ff 2f3d 2c91 ba3e 0bd0 03be 6e5b 22be
00000330: eb9c f9bd 1878 b33e 2b54 9b3c 0a9d d9be
00000340: 863c 1fbe 04f1 363e f6ed bdbd 0c5d e3be
00000350: 8008 5bbd 24df 973e 29d3 a03d ac4e 95be
00000360: 22f1 b9bc f1b7 a53e 842a 0a3e 47e1 c5be
00000370: 5595 d9bd f9b5 963d 12d9 ed3d 31e2 37be
00000380: d096 7dbe 5644 bbbd bb1f 463e e139 c63a
00000390: 8c52 b33c f40e b2bd facf 73be 6b12 0c3e
000003a0: 7da3 da3e d0a3 863d 8820 47be ac32 68be
000003b0: eac9 71be e140 193f d6e7 893e c8bb afbe
000003c0: 254b 27bd a8f3 94be 40f9 9c3e 3c80 ac3e
000003d0: 2378 04be f29f 30bd 38bd 88be 4312 d13d
000003e0: a873 5a3e 9026 2cbc d1ae b93c 881b db3c
000003f0: 1317 093e fd6d cf3b bbbb d1bd 47bd 45be

bias f4 [32]
0.10296135 -0.19613904 -0.088786714 -0.08118238 0.16180065 0.1893903 -0.18412897 -0.03649508
-0.2287439 -0.12783457 0.17044279 0.35625526 -0.04994209 -0.07942418 -0.18605636 0.18265612
0.18037306 -0.3210635 -0.13686706 0.09091729 -0.04914323 -0.2531266 -0.13569288 -0.03438562
-0.13224006 -0.31346104 -0.195493 -0.07684178 -0.059844606 0.05767309 0.1573342 -0.14889875
00000000: 66dd d23d acd8 48be cfd5 b5bd f342 a6bd
00000010: 12af 253e 88ef 413e 4e8c 3cbe dd7b 15bd
00000020: d73b 6abe 11e7 02be 8e88 2e3e 1767 b63e
00000030: 1490 4cbd 25a9 a2bd 8f85 3ebe 350a 3b3e
00000040: b7b3 383e 6f62 a4be e126 0cbe d832 ba3d
00000050: 694a 49bd cf99 81be 13f3 0abe f0d7 0cbd
00000060: f069 07be f77d a0be 512f 48be 395f 9dbd
00000070: 9e1f 75bd 9e3a 6c3d 371c 213e ea78 18be

weight f4 [32, 32, 5, 5]
0.024619889 0.01328864 -0.027010474 -0.010844761 -0.019286659 0.038239427 0.021469297 -0.025484249
0.02442175 -0.05085585 -0.123560354 0.008146296 0.08814675 -0.0015092492 -0.020972123 -0.053807892
-0.037442084 0.016180223 0.012053423 0.016938407 -0.041881327 -0.009772129 0.011219767 -0.0038646262
-0.017445559 -0.005556792 0.14122932 0.019633677 0.026230566 0.07358344 -0.0054331073 0.043030817
0.18475671 -0.029231815 -0.0018314031 0.0013432914 0.01405126 0.07817427 0.08615881 0.037100077
0.011965822 0.083257385 -0.0540728 0.050322767 -0.012926436 -0.017725142 0.0058963313 0.0008005621
-0.018108668 0.0038634546 0.020592058 -0.084367365 -0.079018965 -0.12706748 0.036433302 -0.021792257
-0.063791774 -0.07500369 0.027603397 0.0012856319 -0.011177501 -0.030195115 -0.09704031 -0.115219966
0.004357887 -0.018793484 0.0028927296 -0.11388306 -0.06453936 0.0029952377 0.06318933 0.00816146
0.024090134 0.0040091057 -0.038616903 0.029918304 -0.097532794 0.10653053 0.076761164 0.0061325026
0.07646501 0.060131654 -0.014194602 0.19361892 0.022264184 -0.012677865 0.15492697 -0.05498844
0.14119534 -0.063014634 -0.06693055 0.07203173 0.08179732 0.019507833 -0.0050516766 0.009845674
-0.04631088 0.06669735 -0.025785126 -0.008384847 0.09820101 0.04907788 -0.19321479 -0.045198213
0.034586594 -0.019381046 0.2071498 -0.0750603 -0.12551202 -0.004573826 -0.019381754 0.048970673
0.14487289 -0.10954572 -0.052064087 -0.02233317 -0.010092703 0.091320954 0.015128069 -0.07422025
-0.07676706 0.009649938 0.0062925084 0.02249158 -0.03036086 -0.008674077 0.059662964 -0.042248756
-0.018663436 -0.0054040155 -0.10117852 -0.010242225 0.06768893 -0.03877884 0.016632851 -0.062455516
-0.13650563 0.018234862 0.020617783 0.0051366566 0.036932167 -0.040286575 -0.033054072 0.021657702
0.019459845 -0.009542679 -0.0043576993 -0.04790372 0.01581412 0.029318305 0.038687006 0.023518821
-0.10243768 -0.04102884 0.03803771 0.013572454 0.010136904 -0.03863633 -0.061689615 -0.0025262774
0.025083093 -0.011968633 0.07010052 -0.068959825 0.006040939 0.04097042 -0.043246426 0.04494796
-0.0023040902 0.014425581 -0.0067897686 0.0010751038 -0.03395448 0.008842834 -0.0096194 0.016795484
0.004341816 -0.05653202 -0.071582176 0.028969241 -0.04904875 0.035688587 0.0048260246 -0.01673149
0.06742564 0.0026542265 -0.0064512277 -0.045652326 -0.009373202 0.056634292 -0.006475219 -0.03591185
-0.0030896924 -0.07359776 0.06204855 0.011284333 0.017828327 0.052864693 -0.03045611 0.0008411548
-0.08655375 -0.048248842 -0.063802704 0.008855343 -0.07232067 -0.08070322 -0.063641556 -0.03512748
-0.003910544 -0.087907866 0.016900355 -0.10566364 -0.058853906 -0.031435933 -0.008036481 0.028946703
-0.10742639 -0.047879 -0.02650462 -0.044852592 0.011735021 0.040149685 0.02669073 -0.023589466
-0.0015232209 -0.14258873 -0.024564926 0.081505835 -0.038047142 0.04163822 -0.013928132 -0.1191088
-0.008753596 0.06712327 -0.00014915617 0.031231057 -0.047679257 -0.16957062 0.055979293 0.09876577
0.038801096 0.02281321 -0.04327332 -0.00047609542 0.09771128 0.016235458 -0.040151387 -0.017610654
-0.01640237 0.00803873 -0.100090474 0.079796106 0.07918483 -0.03429597 -0.054559745 -0.036917012
00000000: a6af c93c 99b8 593c 1245 ddbc 39ae 31bc
00000010: 0eff 9dbc f2a0 1c3d 61e0 af3c 58c4 d0bc
00000020: 1f10 c83c 394e 50bd 360d fdbd 0b78 053c
00000030: 4986 b43d 00d2 c5ba bbcd abbc aa65 5cbd
00000040: df5c 19bd 638c 843c b87b 453c 6ac2 8a3c
00000050: c18b 2bbd 481b 20bc 1dd3 373c ab45 7dbb
00000060: fde9 8ebc c015 b6bb 6b9e 103e ced6 a03c
00000070: 7ce1 d63c eab2 963d 3508 b2bb 1541 303d
00000080: dd30 3d3e 8f77 efbc b10b f0ba 6111 b03a
00000090: 4237 663c d519 a03d 0874 b03d 40f6 173d
000000a0: 4c0c 443c d982 aa3d 717b 5dbd 3f1f 4e3d
000000b0: 67c9 53bc 5134 91bc 0336 c13b d0dc 513a
000000c0: a158 94bc 0332 7d3b adb0 a83c ccc8 acbd
000000d0: b2d4 a1bd fa1d 02be 163b 153d ad85 b2bc
000000e0: 43a5 82bd 899b 99bd 8520 e23c a682 a83a
000000f0: d621 37bc bf5b f7bc 12bd c6bd 72f8 ebbd
00000100: 9bcc 8e3b cbf4 99bc f393 3d3b 863b e9bd
00000110: 362d 84bd c04b 443b 6869 813d a5b7 053c
00000120: ac58 c53c d15e 833b c22c 1ebd 3b17 f53c
00000130: 46bf c7bd ae2c da3d f534 9d3d 29f3 c83b
00000140: b099 9c3d 9c4c 763d 7a90 68bc 0a44 463e
00000150: 6163 b63c d2b6 4fbc 2da5 1e3e 8f3b 61bd
00000160: 8395 103e d10d 81bd e212 89bd 5f85 933d
00000170: 5a85 a73d e4ce 9f3c 8988 a5bb c04f 213c
00000180: 7ab0 3dbd 9f98 883d 543b d3bc 9960 09bc
00000190: 9c1d c93d e305 493d 19da 45be c321 39bd
000001a0: acaa 0d3d 00c5 9ebc 141f 543e 37b9 99bd
000001b0: 3986 00be 09e0 95bb 7cc6 9ebc 7995 483d
000001c0: 8f59 143e 8259 e0bd 2741 55bd 0df4 b6bc
000001d0: dd5b 25bc 7b06 bb3d b8db 773c c900 98bd
000001e0: 0c38 9dbd c61a 1e3c 6331 ce3b 4340 b83c
000001f0: 57b7 f8bc b71d 0ebc 2761 743d 080d 2dbd
00000200: 10e4 98bc 2b14 b1bb af36 cfbd 01cf 27bc
00000210: 7ea0 8a3d 90d6 1ebd 9e41 883c 5bd1 7fbd
00000220: 22c8 0bbe 4761 953c a0e6 a83c 6651 a83b
00000230: 2f46 173d 8903 25bd b563 07bd 7e6b b13c
00000240: 416a 9f3c e658 1cbc 08cb 8ebb b136 44bd
00000250: 9d8c 813c f12c f03c 4476 1e3d 8baa c03c
00000260: d9ca d1bd db0d 28bd 6ecd 1b3d 005f 5e3c
00000270: 4215 263c 2141 1ebd 40ae 7cbd e78f 25bb
00000280: 0f7b cd3c 1618 44bc dd90 8f3d cf3a 8dbd
00000290: 12f3 c53b 99d0 273d 2a23 31bd 5a1b 383d
000002a0: 3800 17bb 4659 6c3c b57c debb 7fea 8c3a
000002b0: da13 0bbd 89e1 103c b09a 1dbc af96 893c
000002c0: cb45 8e3b 1f8e 67bd ad99 92bd e750 ed3c
000002d0: 58e7 48bd 322e 123d a123 9e3b 7a10 89bc
000002e0: 7416 8a3d 88f2 2d3b d264 d3bb effd 3abd
000002f0: 0f92 19bc 5cf9 673d 132e d4bb 4e18 13bd
00000300: 707c 4abb 6cba 96bd 9f26 7e3d ece1 383c
00000310: b60c 923c a688 583d 187f f9bc f180 5c3a
00000320: 1843 b1bd 94a0 45bd feaa 82bd 0016 113c
00000330: dc1c 94bd bb47 a5bd 8156 82bd d5e1 0fbd
00000340: 0524 80bb 0a09 b4bd 9d72 8a3c 2e66 d8bd
00000350: cb10 71bd f7c2 00bd 72ab 03bc a321 ed3c
00000360: 5e02 dcbd c51c 44bd 3820 d9bc 5ab7 37bd
00000370: 3f44 403c ff73 243d 85a6 da3c b23e c1bc
00000380: d0a6 c7ba c802 12be 623c c9bc 88ec a63d
00000390: 52d7 1bbd d78c 2a3d d232 64bc 51ef f3bd
000003a0: 3e6b 0fbc ed77 893d ce66 1cb9 46d8 ff3c
000003b0: 534b 43bd eca3 2dbe 8b4a 653d b545 ca3d
000003c0: e6ed 1e3d c5e2 ba3c 5d3f 31bd 729c f9b9
000003d0: da1c c83d 3900 853c c875 24bd 3844 90bc
000003e0: 435e 86bc e1b4 033c 3cfc ccbd 246c a33d
000003f0: a82b a23d ee79 0cbd 0a7a 5fbd 4b36 17bd

bias f4 [32]
-0.38571396 -0.4065189 -0.25163463 -0.21215658 -0.14572695 -0.1854498 -0.1667375 -0.030081904
-0.0050732805 -0.20189993 -0.22349983 -0.31947324 -0.26532897 -0.2535771 -0.32716817 -0.14412917
-0.13984291 -0.03866873 -0.109209985 -0.13792393 -0.36424208 -0.15706652 -0.26519713 -0.025053732
-0.29162487 -0.22491476 -0.2755118 -0.18314059 -0.23066086 -0.036821634 -0.27468088 -0.02050741
00000000: 4d7c c5be 3f23 d0be 41d6 80be 933f 59be
00000010: 7239 15be 8de6 3dbe 3cbd 2abe 536e f6bc
00000020: c33d a6bb dbbe 4ebe 24dd 64be ff91 a3be
00000030: 33d9 87be dcd4 81be 9682 a7be 9996 13be
00000040: fb32 0fbe 1a63 1ebd 7ca9 dfbd ee3b 0dbe
00000050: f07d babe 0cd6 20be ebc7 87be 7c3d cdbc
00000060: db4f 95be 0e50 66be e20f 8dbe 3589 3bbe
00000070: 5c32 6cbe 48d2 16bd f9a2 8cbe 28ff a7bc

weight f4 [64, 32, 5, 5]
-0.0037996813 0.015863752 -0.061104815 -0.20500799 0.029019725 0.038428847 0.061556574 -0.06447675
0.015573872 0.04753485 0.037930805 -0.0018878691 -0.01563907 0.14106236 -0.0063893567 -0.017582037
0.060759835 -0.04625256 0.09759333 0.044617053 0.10176084 -0.0398838 -0.07088627 0.076435275
-0.04193602 -0.022006 -0.07555644 -0.005000622 0.056576654 -0.018481482 0.06360841 0.035872772
0.036794312 -0.021940704 0.011918907 -0.0814811 0.022013834 -0.06664972 -0.02262392 0.13428582
-0.042180415 0.006512724 0.031617012 -0.05232762 0.03908291 0.02856601 0.12415659 0.014657412
-0.012757839 -0.032823578 0.031391256 0.0077607688 0.03278428 0.015008539 0.02197795 -0.01793647
-0.039195023 0.0106050735 0.044891894 0.07126063 -0.06570688 -0.024791963 -0.0037093197 0.023613274
-0.0039685196 -0.013202004 -0.0870671 0.060590148 0.11690202 -0.010921633 -0.06655131 -0.06642516
-0.06834141 0.10400214 0.065396935 -0.048387975 -0.03259162 0.060445823 0.030998047 -0.011048885
-0.0022360573 0.0020675638 0.03800935 -0.044459496 0.054536197 -0.0032155877 -0.08247724 -0.02726093
0.08856432 -0.0026338736 -0.052908804 -0.010386141 -0.021100199 0.043404963 -0.07987751 -0.023059035
-0.09689528 -0.033148214 -0.016330475 0.085045025 0.05732874 0.06254501 0.07751134 -0.11427541
-0.055583294 0.02296314 -0.05239287 -0.02528021 -0.04826913 -0.020594543 -0.06588422 0.06923028
0.11179327 -0.033482745 -0.0071525616 0.0199527 -0.050727975 0.108923756 0.081542 -0.023678929
-0.076648936 -0.18432318 -0.016015701 0.022602173 0.026568362 0.028785357 0.013338981 -0.014489332
0.09811523 -0.027052116 -0.02684593 -0.067363515 0.07521988 -0.09318762 -0.015819713 -0.02700181
-0.017689854 0.033121146 0.04122369 -0.019193936 0.0022713158 -0.03622532 0.0142622255 0.0792462
-0.013122506 0.021799201 -0.00014962444 -0.016066315 -0.0020114512 0.013931264 -0.028562678 -0.04691741
0.021577183 -0.03994059 -0.012543042 0.050125156 -0.027370011 -0.041509584 0.025975682 0.00034116374
-0.020285781 -0.024208404 -0.06380432 0.052842986 0.09059496 -0.0071922536 0.04530454 -0.025439866
-0.0727961 0.00967456 -0.006047625 -0.07069086 -0.022556607 -0.014555807 -0.0039073415 -0.03302172
-0.025826646 0.12776625 0.12064479 0.09422934 0.0131167155 0.0730824 0.07120273 -0.02140089
-0.009554216 -0.068088755 0.012283601 -0.03734557 0.005907722 -0.0804256 -0.062068477 -0.009295467
0.06551448 0.07482721 -0.0147864465 0.05863286 0.018278664 0.033457324 0.058189794 -0.015631571
0.004830926 -0.035891574 0.062317036 0.024504842 0.011639703 -0.1151752 -0.061888684 -0.072639495
0.021725995 0.03157733 -0.06764861 -0.044755254 -0.037179343 0.03886317 0.036993396 -0.13760814
-0.0822498 -0.022900209 0.03413385 0.013022979 0.03877892 -0.10980517 0.027525293 0.044778153
0.044985764 -0.019435648 -0.04460477 -0.038468156 -0.060943402 0.0053889514 -0.07152708 -0.040607892
-0.04583465 -0.036951024 0.035312913 -0.020136964 -0.018451847 0.040427662 0.020934302 -0.08377115
0.049419563 -0.04841847 0.044399437 0.02149874 0.017186075 0.028838266 -0.13827397 0.061710615
0.070473015 -0.046440575 0.06033822 -0.024279268 -0.02826036 -0.060374033 -0.005967235 0.031053985
00000000: 1304 79bb b3f4 813c 0b49 7abd 9ded 51be
00000010: c6ba ed3c 9167 1d3d bf22 7c3d 630c 84bd
00000020: 8e29 7f3c e7b3 423d 555d 1b3d 6072 f7ba
00000030: 821d 80bc a772 103e cf5d d1bb 3408 90bc
00000040: 4edf 783d 5373 3dbd 03df c73d 5fc0 363d
00000050: fd67 d03d 325d 23bd d22c 91bd 198a 9c3d
00000060: 1bc5 2bbd ed45 b4bc 56bd 9abd 42dc a3bb
00000070: ecbc 673d 7a66 97bc 2045 823d 54ef 123d
00000080: a2b5 163d febc b3bc 8547 433c 90df a6bd
00000090: 5b56 b43c a67f 88bd cd55 b9bc 3982 093e
000000a0: 5fc5 2cbd b068 d53b d780 013d 7d55 56bd
000000b0: 6715 203d 4403 ea3c cf45 fe3d a425 703c
000000c0: 4106 51bc 0472 06bd 1e94 003d 0c4e fe3b
000000d0: cf48 063d 60e6 753c 1a0b b43c 81ef 92bc
000000e0: f68a 20bd e7c0 2d3c 90e0 373d 18f1 913d
000000f0: 5491 86bd 8418 cbbc 0f18 73bb a070 c13c
00000100: 5b0a 82bb 384d 58bc 3c50 b2bd 602d 783d
00000110: 546a ef3d a6f0 32bc 0e4c 88bd ea09 88bd
00000120: 95f6 8bbd 13ff d43d d4ee 853d 7832 46bd
00000130: ca7e 05bd 0a96 773d 9eef fd3c 6206 35bc
00000140: d18a 12bb f77f 073b b1af 1b3d 291b 36bd
00000150: 5961 5f3d 9cbc 52bb d4e9 a8bd 5052 dfbc
00000160: 3661 b53d 119d 2cbb e7b6 58bd a22a 2abc
00000170: 53da acbc 67c9 313d d296 a3bd 4de6 bcbc
00000180: 0871 c6bd 6cc6 07bd 7dc7 85bc 162c ae3d
00000190: 8ad1 6a3d 9917 803d 44be 9e3d 3a09 eabd
000001a0: 4fab 63bd 321d bc3c e899 56bd 7118 cfbc
000001b0: dab5 45bd e3b5 a8bc 4eee 86bd 9bc8 8d3d
000001c0: dff3 e43d 3425 09bd 0960 eabb d873 a33c
000001d0: 23c8 4fbd 6b13 df3d 7eff a63d 50fa c1bc
000001e0: 1efa 9cbd 37bf 3cbe 5c33 83bc 3128 b93c
000001f0: e5a5 d93c 45cf eb3c be8b 5a3c aa64 6dbc
00000200: a3f0 c83d 669c ddbc ffeb dbbc e2f5 89bd
00000210: e10c 9a3d 27d9 bebd 5898 81bc e632 ddbc
00000220: 50ea 90bc 0aaa 073d 2cda 283d 9a3c 9dbc
00000230: 5bda 143b 0061 14bd 1cac 693c d54b a23d
00000240: c8ff 56bc 3d94 b23c 81e4 1cb9 819d 83bc
00000250: 8dd2 03bb f53f 643c 47fc e9bc 782c 40bd
00000260: a2c2 b03c be98 23bd 5581 4dbc 0950 4d3d
00000270: 1337 e0bc f405 2abd f4ca d43c 39de b239
00000280: 5e2e a6bc b450 c6bc d7ab 82bd e371 583d
00000290: da89 b93d ffac ebbb 4191 393d 4467 d0bc
000002a0: 1f16 95bd 0c82 1e3c 282b c6bb 5fc6 90bd
000002b0: a2c8 b8bc 7b7b 6ebc 2809 80bb c841 07bd
000002c0: 6792 d3bc 28d5 023e 9e14 f73d 50fb c03d
000002d0: 7ee7 563c 3aac 953d bdd2 913d eb50 afbc
000002e0: 4989 1cbc 1e72 8bbd 2841 493c abf7 18bd
000002f0: 9095 c13b 2db6 a4bd 843b 7ebd 044c 18bc
00000300: 752c 863d 023f 993d da42 72bc 0329 703d
00000310: 23bd 953c 8c0a 093d 6c58 6e3d c80d 80bc
00000320: bf4c 9e3b 0b03 13bd 2640 7f3d 61be c83c
00000330: 74b4 3e3c fae0 ebbd fd7e 7dbd 04c4 94bd
00000340: b7fa b13c 3b57 013d 5b8b 8abd 4951 37bd
00000350: 5e49 18bd fd2e 1f3d 6386 173d 26e9 0cbe
00000360: 9572 a8bd 3899 bbbc f0cf 0b3d 555e 553c
00000370: a5d6 1e3d 88e1 e0bd b97c e13c 4c69 373d
00000380: fe42 383d 8237 9fbc 7eb3 36bd c990 1dbd
00000390: ca9f 79bd cd95 b03b ca7c 92bd 7654 26bd
000003a0: 1dbd 3bbd f559 17bd 46a4 103d 46f6 a4bc
000003b0: 5428 97bc 7a97 253d 6a7e ab3c 3590 abbd
000003c0: 2b6c 4a3d 7252 46bd 2fdc 353d 201e b03c
000003d0: d0c9 8c3c 3a3e ec3c b197 0dbe 45c4 7c3d
000003e0: 2854 903d 7938 3ebd 3625 773d 51e5 c6bc
000003f0: 4582 e7bc c34a 77bd cc88 c3bb ed64 fe3c

bias f4 [64]
-0.082377784 -0.1425576 -0.08884807 -0.23031613 -0.08303322 -0.06802049 -0.15996204 -0.23327379
-0.122330405 -0.10516281 -0.15247741 -0.23810439 -0.04505593 -0.18351541 -0.2587025 -0.12839928
-0.14985262 -0.029847017 -0.17825833 -0.24009319 -0.074781 -0.044436343 -0.25385612 -0.14814498
-0.11140208 -0.34918675 -0.18857527 -0.20596826 -0.15499972 -0.16631103 -0.1874577 0.036298145
-0.242188 -0.06656584 -0.13866475 -0.12633419 -0.02900441 -0.16206826 -0.17163783 -0.13723715
-0.15795639 -0.100905925 -0.17266338 -0.1167186 -0.18188573 -0.11250383 -0.13061057 -0.11868557
-0.10385949 -0.13244462 -0.19763562 -0.25430402 -0.24007896 -0.11222352 -0.07527396 -0.21234798
-0.06658969 -0.15522704 -0.23621 -0.20187296 -0.16014315 -0.059034996 -0.11246283 -0.077835165
00000000: afb5 a8bd 9ffa 11be faf5 b5bd fed7 6bbe
00000010: 520d aabd 544e 8bbd 17cd 23be 53df 6ebe
00000020: 5d88 fabd 995f d7bd 0a23 1cbe a3d1 73be
00000030: 918c 38bd 77eb 3bbe a774 84be 1a7b 03be
00000040: f772 19be bb81 f4bc 5a89 36be fdda 75be
00000050: c826 99bd e202 36bd 6ef9 81be 51b3 17be
00000060: c626 e4bd 9bc8 b2be e019 41be 58e9 52be
00000070: 3fb8 1ebe 704d 2abe e9f4 3fbe 5dad 143d
00000080: 2200 78be ac53 88bd 22fe 0dbe c05d 01be
00000090: a89a edbc 39f5 25be d4c1 2fbe e587 0cbe
000000a0: 52bf 21be c4a7 cebd abce 30be 290a efbd
000000b0: 4140 3abe 6868 e6bd c7be 05be 6c11 f3bd
000000c0: 49b4 d4bd 909f 07be fe60 4abe 2334 82be
000000d0: 42d7 75be 72d5 e5bd 3c29 9abd c071 59be
000000e0: 2d60 88bd d6f3 1ebe 09e1 71be c9b7 4ebe
000000f0: 91fc 23be aece 71bd ea52 e6bd 0b68 9fbd

weight f4 [64, 1024]
0.060839377 -0.0359957 -0.055137772 -0.025020767 0.064110465 -0.01820175 0.0030250854 0.009114373
0.056358088 -0.06274375 -0.035855718 -0.020755421 0.0082840985 -0.041766938 0.015922258 0.032765612
0.03287772 2.504659e-05 -0.018597893 -0.058514617 -0.026707703 0.010123321 0.03577464 0.011581499
0.010995529 -0.08064284 -0.014059386 0.03588312 -0.054442834 -0.0326545 0.03812365 0.011570153
-0.025980959 -0.014173924 -0.01534162 0.011302466 0.015599471 -0.012581489 -0.027726151 -0.04627124
-0.0035185225 0.0117763495 -0.023030318 -0.040199444 -0.04990746 -0.057511754 -0.026545716 -0.038112834
-0.012025851 -0.02533093 -0.065892145 0.047106706 -0.056103725 -0.049444202 -0.010478635 -0.035998154
0.012889365 0.044128165 0.0069299447 0.046630442 0.058637474 0.0051179416 -0.034469105 -0.054193422
0.04444184 -0.017784532 -0.005550842 -0.01549678 0.045328803 -0.00012025589 0.013492559 0.0029766844
0.06200956 0.047257163 0.006887816 0.052333985 0.017215908 0.021703474 -0.021504726 0.03434387
0.018878624 0.0021784892 -0.038315702 -0.024434393 -0.035591718 -0.023981385 0.025821602 -0.011042212
0.062866755 0.029375399 0.023617826 -0.04923812 0.033260707 0.028209956 0.047833107 0.018669093
-0.0038064208 -0.0031559195 0.009628617 0.024252817 0.015907403 0.0021334845 -0.07831965 0.06269196
0.046488434 0.05066544 0.0532867 -0.058200702 -0.031593554 0.019446906 0.032152664 0.06839086
0.04512272 0.012318923 0.034499586 -0.016485844 0.03275418 -0.012792453 -0.06586643 -0.0029716338
0.06465466 0.020948322 0.0311432 -0.010148687 0.01897089 0.040883653 0.038163625 -0.0025916905
0.030329654 0.07859602 0.013669245 0.038447853 0.01897585 -0.013310469 0.004054262 0.0019245344
-0.017964533 -0.024138976 -0.029812047 -0.0025099742 0.004421764 -0.030717352 0.034727145 0.026886655
0.017276194 -0.013628515 -0.010856854 0.022155173 0.02176465 0.007639194 0.00021783684 -0.044289928
-0.0017302346 -0.059586596 -0.05050839 0.014271318 -0.04926328 0.020182451 -0.00997496 -0.017823942
0.020284029 -0.0512814 0.038764015 0.012550852 0.057367485 -0.02629182 -0.05479704 0.008796828
0.0832608 0.010552995 0.009831642 0.028059365 -0.03536036 0.033307582 -0.021241713 0.06424875
0.01918094 0.07223387 -0.03341595 0.023778254 -0.05081569 -0.0050216313 0.020872377 -0.0065877168
0.004713015 0.0022869913 0.015357345 -0.02981732 -0.0014964653 -0.005216963 0.07048024 0.056018848
-0.02047039 0.020817291 0.016692497 -0.0011262294 -0.003980863 -0.030341163 -0.038410608 -0.042687036
-0.022637859 -0.02320547 -0.01933609 0.04111088 -0.005150301 0.010793147 0.0010358315 0.06930944
0.031533673 -0.019003278 -0.008584004 0.028876264 0.009251326 0.028832056 0.0069557517 0.053924613
-0.059657868 0.013507124 0.016370242 0.05369976 -0.03548727 0.017766297 0.0061991774 -0.058417853
0.005990972 0.0007826288 0.0031899607 -0.01763654 0.0060407114 -0.029716251 0.02060902 0.030206371
0.024358664 0.017724963 0.0021490962 -0.047828376 -0.037191015 -0.042861782 -0.00037878484 -0.047207374
0.022727605 -0.023434844 0.04279984 0.024936054 0.031655457 0.061289266 0.0638859 0.08580466
0.002392976 0.028292058 -0.061649963 -0.015115277 0.0038659994 -0.0047053196 0.002789597 -0.009300088
00000000: b632 793d 3a70 13bd 25d8 61bd 5af8 ccbc
00000010: 594c 833d d61b 95bc 8340 463b 7354 153c
00000020: bdd7 663d cc7f 80bd 72dd 12bd 4607 aabc
00000030: 07ba 073c cf13 2bbd 656f 823c 3c35 063d
00000040: caaa 063d 241b d237 9c5a 98bc 06ad 6fbd
00000050: 1dca dabc 49dc 253c 6e88 123d 54c0 3d3c
00000060: 9726 343c 1328 a5bd 5759 66bc 2efa 123d
00000070: 73ff 5ebd bac0 05bd 8b27 1c3d bd90 3d3c
00000080: 05d6 d4bc bf39 68bc 6b5b 7bbc fa2d 393c
00000090: ec94 7f3c 9722 4ebc f421 e3bc e986 3dbd
000000a0: 0397 66bb 97f1 403c 14aa bcbc 2ca8 24bd
000000b0: c46b 4cbd 7291 6bbd 6776 d9bc 341c 1cbd
000000c0: 1308 45bc cf82 cfbc 76f2 86bd f6f2 403d
000000d0: 05cd 65bd 0186 4abd 95ae 2bbc cd72 13bd
000000e0: ea2d 533c bcbf 343d 9714 e33b 90ff 3e3d
000000f0: d92d 703d 68b4 a73b 7a2f 0dbd ecf9 5dbd
00000100: a608 363d deb0 91bc d6e3 b5bb 35e6 7dbc
00000110: b2aa 393d e431 fcb8 e50f 5d3c 7a14 433b
00000120: bdfd 7d3d ba90 413d 30b3 e13b 295c 563d
00000130: 6008 8d3c 7ccb b13c ae2a b0bc 28ac 0c3d
00000140: 58a7 9a3c fcc4 0e3b edf0 1cbd a32a c8bc
00000150: 9fc8 11bd 9c74 c4bc d387 d33c 65ea 34bc
00000160: 49c0 803d ada4 f03c 2c7a c13c e9ad 49bd
00000170: 613c 083d 9118 e73c a6ec 433d edef 983c
00000180: 2575 79bb 8bd3 4ebb 59c1 1d3c d8ad c63c
00000190: 3e50 823c eed1 0b3b 0d66 a0bd a464 803d
000001a0: a86a 3e3d 9086 4f3d 2843 5a3d dc63 6ebd
000001b0: 3e68 01bd 1e4f 9f3c 83b2 033d 8210 8c3d
000001c0: 9ad2 383d 4fd5 493c 704f 0d3d 520d 87bc
000001d0: 3f29 063d 7097 51bc fbe4 86bd bebf 42bb
000001e0: aa69 843d d19b ab3c 0620 ff3c ae46 26bc
000001f0: d768 9b3c 9e75 273d 7651 1c3d 5ad9 29bb
00000200: e575 f83c f3f6 a03d f8f4 5f3c 7f7b 1d3d
00000210: 3e73 9b3c 2714 5abc 9dd9 843b a940 fc3a
00000220: 5b2a 93bc 1abf c5bc 6538 f4bc 617e 24bb
00000230: 72e4 903b f5a2 fbbc 0d3e 0e3d 6741 dc3c
00000240: ce86 8d3c 234a 5fbc f2e0 31bc c47e b53c
00000250: c74b b23c 3452 fa3b 226b 6439 5b69 35bd
00000260: 0ac9 e2ba 1311 74bd e3e1 4ebd 3fd2 693c
00000270: 4bc8 49bd ab55 a53c 046e 23bc 8403 92bc
00000280: b12a a63c 720c 52bd 04c7 1e3d 17a2 4d3c
00000290: 2bfa 6a3d f161 d7bc dc72 60bd 9220 103c
000002a0: a384 aa3d 78e6 2c3c e514 213c c1dc e53c
000002b0: 06d6 10bd 886d 083d 1a03 aebc d994 833d
000002c0: 5921 9d3c 5aef 933d 2adf 08bd 9dca c23c
000002d0: 1d24 50bd 7f8c a4bb 8cfc aa3c c6dd d7bb
000002e0: a36f 9a3b 59e1 153b 609d 7b3c 7443 f4bc
000002f0: 0b25 c4ba 0ff3 aabb f257 903d 0574 653d
00000300: 85b1 a7bc 0689 aa3c b4be 883c fd9d 93ba
00000310: e671 82bb 088e f8bc 7154 1dbd 9ad8 2ebd
00000320: 0873 b9bc 6619 bebc b866 9ebc e263 283d
00000330: dbc3 a8bb bdd5 303c bdc4 873a 1cf2 8d3d
00000340: 7429 013d c3ac 9bbc eca3 0cbc ea8d ec3c
00000350: e092 173c 3431 ec3c 13ed e33b 0ee0 5c3d
00000360: cf5b 74bd fc4c 5d3c e31a 863c 48f4 5b3d
00000370: 1a5b 11bd a08a 913c 7822 cb3b 8f47 6fbd
00000380: ea4f c43b 5429 4d3a a90e 513b 817a 90bc
00000390: 29f1 c53b 7f6f f3bc 3fd4 a83c 5a73 f73c
000003a0: d28b c73c f133 913c dad7 0c3b b0e7 43bd
000003b0: 9b55 18bd d68f 2fbd a497 c6b9 855c 41bd
000003c0: 3e2f ba3c 6efa bfbc e34e 2f3d b246 cc3c
000003d0: 27a9 013d 740a 7b3d 9cd6 823d 5bba af3d
000003e0: 7ad3 1c3b bfc4 e73c ac84 7cbd 11a6 77bc
000003f0: b55c 7d3b 152f 9abb acd1 363b 655f 18bc

bias f4 [64]
-0.0036405455 -0.018562013 -0.015358205 0.07759322 0.061260886 0.000571266 0.03402578 0.085639335
-0.01869083 -0.020122608 0.018039085 0.022312751 0.009980181 -0.0030161082 0.011273025 -0.003437529
0.11494181 0.04369583 -0.075637236 -0.058945127 -0.020444134 0.0033113116 -0.0068825926 0.06333342
-0.0012409466 -0.050009787 0.02654106 -0.058682438 0.023744196 0.02606494 0.029664865 -0.07327018
-0.016343195 -0.046252064 -0.07889823 0.093236215 -0.017970046 -0.0076844217 0.028518192 0.048501316
-0.04337896 -0.00019287739 -0.019124795 0.018965013 0.044612803 -0.027066575 -0.0007789853 -0.014441932
-0.027220748 -0.01574407 -0.0052029863 -0.08252926 -0.082462795 0.013731044 0.004250783 -0.027794667
-0.02187271 0.02020129 -0.019251477 -0.000370036 -0.028009234 -0.039113626 0.07690542 0.033647634
00000000: 3896 6ebb 5d0f 98bc fba0 7bbc 32e9 9e3d
00000010: b2ec 7a3d 03c1 153a 9e5e 0b3d ad63 af3d
00000020: 831d 99bc 2bd8 a4bc b4c6 933c 3bc9 b63c
00000030: ea83 233c e6a9 45bb 7eb2 383c 2b48 61bb
00000040: 9d66 eb3d 66fa 323d b2e7 9abd 7270 71bd
00000050: 757a a7bc 9702 593b 5f87 e1bb f4b4 813d
00000060: 42a7 a2ba 10d7 4cbd a36c d93c ff5c 70bd
00000070: 3083 c23c 2486 d53c bb03 f33c ad0e 96bd
00000080: 2ae2 85bc ce72 3dbd 6595 a1bd a1f2 be3d
00000090: eb35 93bc 9acd fbbb fc9e e93c 51a9 463d
000000a0: 23ae 31bd 213f 4ab9 9aab 9cbc 845c 9b3c
000000b0: eabb 363d b9ba ddbc d234 4cba da9d 6cbc
000000c0: 0cfe debc b5f9 80bc d07d aabb 1a05 a9bd
000000d0: 41e2 a8bd 2cf8 603c 274a 8b3b a4b1 e3bc
000000e0: 662e b3bc 2d7d a53c 46b5 9dbc 6401 c2b9
000000f0: 9f73 e5bc 9c35 20bd 9780 9d3d 1ad2 093d

weight f4 [10, 64]
-0.092038676 0.15980461 0.17764963 0.09906579 0.056500617 0.06749904 0.2949436 -0.14144333
-0.20571867 -0.0013638489 -0.20724571 -0.23447241 0.085581854 -0.032233573 0.0098912185 0.061046146
-0.24776925 0.00046443546 0.17224866 0.15781802 -0.13589686 -0.19963121 -0.035157178 0.15904757
0.15755029 0.10443815 0.21747978 0.31026077 -0.123674616 -0.25764892 -0.12434144 0.14188059
0.017587181 0.13769218 0.2797785 0.030914698 0.15363383 0.31399685 -0.23073733 0.20557137
0.18015638 -0.052727208 -0.11396889 -0.042913772 -0.1111906 -0.06613156 0.3299882 0.013045024
0.34650022 0.2489388 -0.13294582 0.09889434 0.07329326 -0.14684805 0.10037725 0.073136374
0.075719886 0.050963894 -0.19794314 0.26447472 0.19067636 -0.26296437 -0.12111515 0.0031629752
0.194826 0.39912927 0.030280992 -0.3926124 0.2909063 0.38542897 0.13126503 0.23273696
0.31570905 0.20123434 -0.030397277 0.40491343 -0.03177561 -0.111384556 -0.015610914 0.12321544
-0.012519233 -0.09777105 0.33522356 0.14190356 0.13972017 0.009268352 0.2665537 -0.15001653
0.04540004 -0.13193671 -0.05630323 0.046499077 -0.10703969 0.07172049 0.017969172 0.04459893
-0.23857132 0.04200225 -0.20832597 0.10764823 -0.0426541 -0.23324232 -0.014817345 -0.067431316
0.41080758 -0.3179882 0.035201523 0.44988167 -0.27017382 -0.064058654 -0.058832474 0.43801746
-0.19663699 -0.40374926 -0.03212949 -0.09495483 0.35398006 -0.18366171 -0.24838166 0.30795768
0.30464074 0.22474235 -0.1068466 -0.11554892 0.04560487 0.19078651 -0.24550954 -0.21800399
-0.19999225 0.058810964 0.10855516 -0.07546788 -0.22019236 -0.32581732 -0.26771322 -0.027865894
0.17533354 0.08610667 0.09352826 -0.03387867 0.28604126 0.0066004866 -0.11426143 -0.34159735
0.093323246 -0.09006973 0.08136032 0.22462998 -0.0022538987 -0.12102336 -0.03296123 -0.03945351
0.09186118 0.31162032 0.1097972 -0.10446569 0.07253515 -0.23836793 0.17316817 -0.40809223
0.021469878 0.0038203802 0.25975764 0.009643116 0.13859037 0.2541381 -0.06733343 -0.32908386
-0.015630769 0.22788504 0.3357601 -0.11967272 0.12087565 -0.060401887 0.27982464 0.1340779
0.16911046 -0.15039003 0.1960776 0.035727475 -0.22940242 -0.07959589 -0.009622866 -0.10505042
-0.03133725 0.08072732 -0.03348907 0.040005174 -0.033828408 -0.256762 -0.07447309 0.040136114
0.21859847 -0.19229089 -0.26424798 0.113280736 0.036909837 0.04321484 -0.15074171 0.13493955
0.03379275 0.11561899 -0.0052973027 -0.095095225 0.098808356 -0.04959906 -0.1149217 -0.117982544
-0.02762031 0.17577179 -0.17880459 0.17739351 0.14031015 0.06285461 0.00476876 -0.08136489
-0.11760582 0.029450204 0.03662733 0.16122767 -0.12010817 0.12570436 0.030094417 -0.066259705
0.021197079 -0.0036834646 0.06030534 0.020844545 0.15008393 0.029038532 -0.2574452 0.14705613
-0.20556818 0.21362434 0.04355023 -0.13817781 -0.094994165 0.070854425 -0.10911211 -0.14327043
-0.21508461 0.094710626 0.1661269 -0.05563156 0.012904706 0.24415778 -0.14196654 -0.04357172
0.14707671 -0.21450567 0.22387287 -0.23188016 0.24230818 0.0351966 0.17171264 -0.12844896
00000000: c67e bcbd d2a3 233e c9e9 353e 01e3 ca3d
00000010: 316d 673d f03c 8a3d d902 973e 85d6 10be
00000020: eaa7 52be 2dc3 b2ba 3838 54be 8919 70be
00000030: 8a45 af3d 5a07 04bd c70e 223c 860b 7a3d
00000040: 39b7 7dbe 797f f339 f461 303e 0c9b 213e
00000050: 8c28 0bbe 206c 4cbe f900 10bd 5edd 223e
00000060: dd54 213e abe3 d53d 05b3 5e3e 80da 9e3e
00000070: 1e49 fdbd 8fea 83be baa6 febd 2549 113e
00000080: fe12 903c 2eff 0c3e 213f 8f3e d240 fd3c
00000090: 3052 1d3e 32c4 a03e 6846 6cbe 4d81 523e
000000a0: ea7a 383e 7cf8 57bd 8568 e9bd 5ac6 2fbd
000000b0: e6b7 e3bd fc6f 87bd 37f4 a83e ccba 553c
000000c0: 7a68 b13e d0e9 7e3e f322 08be 1e89 ca3d
000000d0: c71a 963d 565f 16be 9692 cd3d 86c8 953d
000000e0: 0713 9b3d 84bf 503d 9bb1 4abe 3b69 873e
000000f0: aa40 433e 44a3 86be 380b f8bd eb49 4f3b
00000100: 7880 473e ac5a cc3e d80f f83c 7e04 c9be
00000110: acf1 943e f256 c53e 576a 063e 9952 6e3e
00000120: 9ea4 a13e 6010 4e3e b603 f9bc d050 cf3e
00000130: 2427 02bd 961d e4bd ebc4 7fbc 6058 fc3d
00000140: 781d 4dbc 303c c8bd 6ca2 ab3e 2b4f 113e
00000150: ce12 0f3e 49da 173c ba79 883e ef9d 19be
00000160: 64f5 393d 6b1a 07be 379e 66bd d175 3e3d
00000170: a037 dbbd 31e2 923d 1634 933c 5ead 363d
00000180: 0a4c 74be 8d0a 2c3d 6753 55be ad76 dc3d
00000190: 11b6 2ebd 13d7 6ebe 73c4 72bc 6e19 8abd
000001a0: 5f55 d23e 59cf a2be 792f 103d e456 e63e
000001b0: 3954 8abe 2f31 83bd 52fa 70bd d343 e03e
000001c0: 355b 49be 39b8 cebe 369a 03bd ae77 c2bd
000001d0: e03c b53e d111 3cbe c357 7ebe a1ac 9d3e
000001e0: dff9 9b3e dc22 663e 64d2 dabd eaa4 ecbd
000001f0: 2ccc 3a3d 8a5d 433e da66 7bbe 703c 5fbe
00000200: c5ca 4cbe c4e3 703d 2b52 de3d e78e 9abd
00000210: 1b7a 61be 87d1 a6be b511 89be 0447 e4bc
00000220: a38a 333e b258 b03d bf8b bf3d 5cc4 0abd
00000230: 0074 923e e548 d83b e601 eabd d9e5 aebe
00000240: 4220 bf3d 7b76 b8bd 3da0 a63d 6705 663e
00000250: 25b6 13bb 18db f7bd 5b02 07bd 019a 21bd
00000260: b721 bc3d b38c 9f3e 5bdd e03d 1cf2 d5bd
00000270: 4f8d 943d b916 74be ff52 313e 77f1 d0be
00000280: 99e1 af3c 585f 7a3b f4fe 843e 29fe 1d3c
00000290: a2ea 0d3e 641e 823e 1ce6 89bd ae7d a8be
000002a0: 190c 80bc b25a 693e bfe8 ab3e f916 f5bd
000002b0: a78d f73d f867 77bd 2d45 8f3e b84b 093e
000002c0: 4b2b 2d3e d8ff 19be 91c8 483e f956 123d
000002d0: 78e8 6abe 2c03 a3bd 3aa9 1dbc ad24 d7bd
000002e0: 7d5b 00bd 5d54 a53d d62b 09bd 77dc 233d
000002f0: a88f 0abd 4f76 83be 5985 98bd c465 243d
00000300: 47d8 5f3e e7e7 44be 834b 87be bbff e73d
00000310: c52e 173d 0b02 313d 095c 1abe 982d 0a3e
00000320: 446a 0a3d a6c9 ec3d ff94 adbb 49c1 c2bd
00000330: 095c ca3d 6228 4bbd 115c ebbd d5a0 f1bd
00000340: fd43 e2bc 85fd 333e 8d18 37be a5a6 353e
00000350: 77ad 0f3e ebb9 803d 4243 9c3b a3a2 a6bd
00000360: 52db f0bd 8e41 f13c 8a06 163d de18 253e
00000370: 46fb f5bd a5b8 003e 9188 f63c 2bb3 87bd
00000380: 7fa5 ad3c 4866 71bb bb02 773d 2ec2 aa3c
00000390: 9aaf 193e 37e2 ed3c dbcf 83be e295 163e
000003a0: 7780 52be 57c0 5a3e ba61 323d 7c7e 0dbe
000003b0: 4d8c c2bd 201c 913d 2c76 dfbd 7cb5 12be
000003c0: 243f 5cbe a5f7 c13d 2c1d 2a3e ebdd 63bd
000003d0: 436e 533c 7f04 7a3e ad5f 11be 4378 32bd
000003e0: 479b 163e 60a7 5bbe ee3e 653e fe71 6dbe
000003f0: a31f 783e 4f2a 103d 70d5 2f3e 2088 03be

bias f4 [10]
-0.037568517 -0.17499875 0.021967629 0.16667223 0.1750623 -0.22918424 0.054890867 -0.13932115
0.07066232 -0.035196118
00000000: 72e1 19bd df32 33be 75f5 b33c 20ac 2a3e
00000010: 8843 333e 46af 6abe 3fd5 603d 34aa 0ebe
00000020: 68b7 903d ce29 10bd
