models/traintest_20.pth (torch, 589374 bytes, 10 tensors)

weight f4 [32, 3, 5, 5]
000000 53 08 73 bd 2b b0 ef 3d 24 88 d2 3d e6 f8 58 be
       -0.05933411 0.11703523 0.10279873 -0.21188697
000010 5e fa 32 bd de d4 01 be c2 44 9c 3e 55 4b 16 3e
       -0.0436958 -0.12678859 0.30521208 0.14677174
000020 85 53 89 be 6d bb 19 be 41 15 0e 3e 17 e1 a5 3e
       -0.26821533 -0.15012904 0.13875295 0.32398292
000030 33 3a b0 3d 57 78 8c be 8f 9d 55 be 06 49 1f 3e
       0.086048506 -0.27435562 -0.20860885 0.155552
000040 f0 8d 47 3e f1 e1 6d bc 7f 81 37 be c3 3c 5f be
       0.19487739 -0.014519201 -0.17920493 -0.21800523
000050 fe f5 06 3e 9a a5 b9 bd 96 65 09 3e 02 87 8e bd
       0.13179776 -0.09064789 0.13417658 -0.069593444
000060 43 a7 c0 bd 5a f1 00 be 00 77 4d 3e 02 a8 b1 3d
       -0.09406903 -0.12592068 0.20064926 0.08674623
000070 cf a6 39 be e4 6d f9 3c af 9a bd 3d fb 32 18 3e
       -0.18130039 0.030447908 0.09258019 0.14863198
000080 28 94 ec 3c a3 6d 94 be ed 1e 65 3c 66 a8 2d bd
       0.02887924 -0.28989896 0.013984424 -0.042396925
000090 68 38 2d 3e de 44 e2 3c b4 19 1c be 8a 09 93 bd
       0.16916049 0.027620729 -0.1524418 -0.07179554
0000a0 1b 67 4f 3e b9 a0 78 bc 38 9e 1f bc 3a ad 85 bd
       0.20254175 -0.015175038 -0.009742312 -0.06527181
0000b0 b4 36 d9 bd c3 c5 0d 3e 3d 0f 3e 3c 7a 5d 0d 3d
       -0.10606137 0.13844971 0.011600313 0.034512974
0000c0 44 06 33 3d d8 ad 19 be ca 6f 0a bd 78 38 3e 3e
       0.043707147 -0.15007722 -0.033798017 0.18576229
0000d0 d5 1c 72 bd 89 0f 3d be 03 e1 68 3d 6d d7 04 be
       -0.059109528 -0.18462957 0.056855213 -0.12972803
0000e0 28 7f 6c 3e 5c 93 25 3d 5d 13 eb bd c4 6f 03 bd
       0.23095381 0.040423736 -0.11478303 -0.03208901
0000f0 7b 55 04 3e b9 40 3c 3e c4 ff f3 3c e4 51 83 be
       0.12923233 0.18384065 0.029785044 -0.25648415
000100 26 ea 40 be fe 5e b6 3d 24 1d 6d 3d a5 15 18 3d
       -0.1883932 0.08904837 0.05788912 0.037130017
000110 46 81 bb 3b 71 7f cf bd 68 2a 74 3c 88 b1 b4 bd
       0.0057221977 -0.101317294 0.014902689 -0.08822924
000120 af 97 c1 3c 75 ba a9 3d 5a 34 9c bb bc e8 b8 3a
       0.023631899 0.08287517 -0.004766983 0.0014107446
000130 d2 d8 19 be fd 40 f2 bc 68 fc 2d be 0d ae 30 be
       -0.15024117 -0.029572004 -0.16990817 -0.17253895
000140 90 fb 66 bd 86 99 3e be 42 a1 1b 3d d9 0b 47 be
       -0.056392252 -0.18613252 0.037995584 -0.19438113
000150 fd 89 df 3d 8c 87 f5 bd 53 3e b4 3d e7 d6 db 3d
       0.10914991 -0.11988744 0.0880095 0.10734349
000160 5a 6b 28 bd 66 c3 1f 3e 84 bb 19 3c 7e da d4 bc
       -0.041118003 0.15601882 0.009383086 -0.025983091
000170 d7 3b d7 b9 cd 67 81 bb 68 86 ab 3d 03 0e bc bd
       -0.0004105258 -0.0039491416 0.08375245 -0.0918236
000180 f8 ee 40 bd 2e af a3 bd 0a 72 45 be 0f ea 22 bd
       -0.0471029 -0.07992397 -0.19281784 -0.039773997
000190 e3 1a b0 bd e9 fe e5 bd c8 b7 34 bc 6f c2 aa 3d
       -0.08598878 -0.11230261 -0.011030145 0.083378665
0001a0 cf 88 5b 3b ce c7 c4 bd e5 a4 45 3c 13 61 27 3e
       0.0033498292 -0.09608422 0.01206324 0.16345625
0001b0 96 30 06 be 87 1d 4c 3d fe 4c 08 3d 9f 53 64 3e
       -0.13104472 0.049832847 0.03327655 0.22297524
0001c0 7b bb 63 3e 53 e4 b4 bd 0d be 38 3e f7 aa 3e 3e
       0.22239487 -0.08832612 0.18041249 0.18619905
0001d0 1c 3c 23 3e 13 b2 14 3e ee c6 9d bc b1 2f 19 3e
       0.15940899 0.14521055 -0.019259896 0.14959599
0001e0 a2 4f d6 bd 7c 4e d4 3d 38 f6 f6 bc 2a 26 3b bd
       -0.104644075 0.10366532 -0.030146703 -0.045690693
0001f0 03 9e e3 3b 3f 4f aa bc 8f 67 3d bd e5 82 fc 3a
       0.0069463267 -0.02078974 -0.04624134 0.0019265084
000200 be b2 55 3d 73 23 36 bd 28 cf 42 be 6d db 85 bd
       0.052172415 -0.0444674 -0.19024336 -0.06535993
000210 2f 54 14 3e a1 b7 31 3d 35 99 61 bc aa 12 93 3d
       0.14485238 0.043388013 -0.013769438 0.07181294
000220 1e d1 33 bd 6a 7a 8c 3d 06 9e 32 be aa b7 33 3e
       -0.0439006 0.06859286 -0.17443094 0.17550531
000230 6c 34 04 3e 4e 70 ab 3d 3b 75 ce bc ff 08 55 3d
       0.12910622 0.0837103 -0.025202384 0.052010532
000240 02 61 2b bc e6 f6 ed bd a8 4a a4 3d 47 c1 0a bc
       -0.01046014 -0.11619358 0.08022052 -0.0084689325
000250 ed 9b 1b be 33 b2 6f bd 91 29 f8 3d b7 6e cb 3d
       -0.151962 -0.058519553 0.12117303 0.099332266
000260 63 9f a4 3d 8e 47 6c 3e d0 a1 4f bd c0 34 03 3d
       0.08038213 0.23074171 -0.050691426 0.03203273
000270 5e 38 4f be 16 e7 7d 3e 00 f1 c5 3d e8 e4 e8 bd
       -0.20236346 0.24795184 0.09665108 -0.113717854
000280 dd ae 54 3e d1 3e f3 bc 76 74 ae 3e 19 cf 09 3e
       0.2076983 -0.02969304 0.34073228 0.13457908
000290 a5 75 06 be cc 32 00 bd 31 1c 4b bd 33 29 2f 3e
       -0.13130815 -0.031298444 -0.049587432 0.1710556
0002a0 b3 f6 32 be 3a 42 42 be 56 00 89 bc 4f e9 43 be
       -0.17476921 -0.18970576 -0.016723793 -0.19131969
0002b0 b5 d0 41 3e 01 4d dc bc b7 81 d0 bc aa a4 84 bd
       0.18927272 -0.026892187 -0.025452478 -0.0647672
0002c0 6d 53 7c be 7a d1 1b bc 5d d0 34 3d 7b 44 64 be
       -0.246412 -0.009510392 0.044144023 -0.22291748
0002d0 07 5a ca bc 80 61 81 be 87 07 7f 3d 25 c9 d1 bc
       -0.024701132 -0.252697 0.062263038 -0.025608608
0002e0 79 3e 51 be 15 27 60 3d ae 78 be bd 8d 09 73 3e
       -0.20433988 0.05472477 -0.093003616 0.23734112
0002f0 b1 95 39 3e c8 b5 47 be 31 68 22 bd 55 38 3c be
       0.18123509 -0.19502938 -0.039650146 -0.18380864
000300 d5 c8 b2 3d fe e5 2f bd 3a 28 3f be 8e 7c 33 3e
       0.08729712 -0.042943947 -0.18667689 0.17527983
000310 94 13 d6 bd f0 28 8e 3e 01 14 50 bd 81 50 3b 3c
       -0.10452953 0.27765608 -0.050800327 0.011432768
000320 b9 c4 76 3d a0 32 25 be a4 4b ba bd 58 55 c9 3d
       0.060246203 -0.16132593 -0.090964586 0.09830731
000330 6a c9 5a bd f3 f2 43 3e 1f a0 81 be 0f ba d5 3d
       -0.05341474 0.19135647 -0.25317475 0.104358785
000340 f1 76 d0 3d 69 94 f3 bd ae 67 05 3e 5e c3 82 be
       0.10178936 -0.11893541 0.13027832 -0.25539678
000350 f9 19 83 3d 49 78 82 bd 86 cc 20 be 47 df ee bb
       0.06401438 -0.06370599 -0.1570302 -0.0072898003
000360 8f 38 46 be ab ec 8a bc f3 c3 d1 bb 17 a1 db bd
       -0.19357513 -0.016958555 -0.006401533 -0.10724085
000370 b9 13 99 bc 31 d6 50 be 52 82 6f 3d 73 7f 02 be
       -0.018686162 -0.20394208 0.058473893 -0.1274393
000380 22 e2 9b bd ba 30 98 bd b3 65 31 3e 35 19 ab bd
       -0.07611491 -0.07431169 0.17323951 -0.08354417
000390 10 62 bf 3d d2 f3 66 bd 62 ea 0e be 48 98 c9 3a
       0.09344876 -0.05638487 -0.13956597 0.0015380466
0003a0 f6 f6 ef 3d 82 99 dd 3d 35 cf 8d bd dd 59 87 be
       0.11717026 0.10820295 -0.06924287 -0.26435748
0003b0 80 14 73 3d bd 8b 60 3e 24 30 7d 3e 63 b1 70 3d
       0.059345722 0.21928306 0.24725395 0.05876292
0003c0 63 71 13 be 34 d9 ee bd 89 cf 99 3e a5 c9 20 3e
       -0.14398722 -0.11662522 0.3004115 0.15701921
0003d0 6e 4e 9f 3d 47 23 74 bb 1e 36 45 3d fa 6e 6a 3e
       0.07778631 -0.0037252472 0.048147313 0.22893897
0003e0 4e e3 86 bc c7 65 a9 3c 08 d7 5a 3d d4 1a 14 bb
       -0.01646581 0.020678414 0.053427726 -0.0022598999
0003f0 f1 e3 0a be 9c da 24 3d f9 de 16 bd 7a a4 48 be
       -0.13563515 0.040247545 -0.036833737 -0.19593993

bias f4 [32]
000000 12 a9 92 bd ca fe c5 bb a3 43 b7 3e a1 0d 06 be
       -0.07161154 -0.006042336 0.3579379 -0.13091137
000010 a2 55 af 3d 80 05 1e 3e 35 23 da bd af 96 dc bd
       0.08561255 0.15431786 -0.106512465 -0.10770928
000020 27 7f 94 be 1e 6e 9e bd c5 74 64 be 1c 5d 18 be
       -0.2900326 -0.07735847 -0.22310169 -0.14879268
000030 92 96 3f bd e4 f0 f0 bc 4d d0 ae be 23 46 1c bc
       -0.046774454 -0.02941174 -0.34143296 -0.009538206
000040 22 3e db bd 60 9a 58 be ce df cb be dd c1 19 3d
       -0.1070521 -0.2115264 -0.39819187 0.037538398
000050 38 06 11 3d 1f 65 e2 3c 24 48 54 3e eb 8c 34 3d
       0.03540632 0.027636109 0.20730644 0.044079702
000060 0b 18 03 bd b5 94 47 be 4b ec f8 bb 2e 6b b3 3b
       -0.03200535 -0.19490321 -0.0075965277 0.0054754233
000070 79 59 3a bd 21 61 e2 3d 15 be a2 bd f9 04 ca bd
       -0.045495484 0.11053682 -0.079464115 -0.0986423

weight f4 [32, 32, 5, 5]
000000 6d a1 9b 3d 2c 7b 82 3d de 2b 39 3c 9b 3e aa bc
       0.07599149 0.063711494 0.011301963 -0.020781806
000010 ff be d5 3d 47 89 ec 3c 47 a8 b2 3c ac 61 0c 3d
       0.1043682 0.028874053 0.021808757 0.034272835
000020 2c 98 e2 bc 84 8a 3e 3d 3a ef 22 3d 3e 3d a8 bb
       -0.027660452 0.046518818 0.039778925 -0.0051342538
000030 2a 22 28 bc d4 52 8f bb b9 c2 04 bb 44 52 69 bc
       -0.010262052 -0.0043738876 -0.0020257665 -0.014240805
000040 21 59 61 bd 6a 2c 4d bc ac b0 7a 3c 2d 9a 6d bc
       -0.05501664 -0.012522796 0.015300911 -0.01450209
000050 14 40 d0 bc 7e ac 95 bc f6 a6 01 3d ec 52 02 3d
       -0.02542118 -0.018270727 0.031653367 0.03181736
000060 42 ef 32 3c 7e de f7 bb e6 ee 3c bd 1b 96 19 bd
       0.010921301 -0.007564365 -0.04612627 -0.037496667
000070 c8 9a e8 bc 31 22 89 bb c2 d7 e3 3c 85 e1 e9 3b
       -0.028394118 -0.004184984 0.027812842 0.0071374797
000080 71 e4 31 3d 0f 17 85 3d c1 8a 61 3d ce 91 1f bd
       0.04343075 0.06498539 0.055063967 -0.03895741
000090 da ba 86 bb 85 70 08 bd 40 2f a1 3c 0a 7a 18 3d
       -0.00411163 -0.033310432 0.01967585 0.03722576
0000a0 dc 7b 91 bd 66 07 85 bd 96 fc 85 bc 72 04 9e 3b
       -0.071037024 -0.06495552 -0.016355794 0.0048223073
0000b0 dd 1c 9c bc a4 e6 73 bd bd 7e 26 3b 1d b2 d6 bc
       -0.019056732 -0.059546128 0.0025405132 -0.026207978
0000c0 15 67 9f bc 62 c7 d2 b9 46 bc 68 bd f7 60 b6 3b
       -0.019458333 -0.00040202873 -0.056820177 0.0055657583
0000d0 a5 00 35 bd 3c 1d 96 3b af 22 9c bb ef 42 4d bd
       -0.044190068 0.0045811217 -0.004764877 -0.05011266
0000e0 5f f0 7d bd ea 87 16 bd df d3 15 3b 18 25 06 bd
       -0.061996814 -0.03675071 0.002286188 -0.03275022
0000f0 dc 0b 1b 3d c9 bf ca bb 9f e1 62 3c 5b 81 14 bd
       0.037853107 -0.0061874134 0.013847738 -0.036256175
000100 59 8a c0 bc 22 b0 ec 3c 35 57 38 bd 18 50 f9 bc
       -0.02350347 0.02889258 -0.045005042 -0.0304337
000110 dc 92 86 bc a4 e3 01 bd e7 ee b9 3c 36 be 32 3d
       -0.01642745 -0.031711236 0.022696925 0.04363843
000120 27 66 52 3d a5 36 83 bc d3 16 6b bd 3b 91 f1 bc
       0.05136695 -0.016017267 -0.057394814 -0.029488197
000130 a3 eb a4 3c c8 69 4c bd 09 22 bc 3c e6 29 39 3c
       0.020131892 -0.04990557 0.022965448 0.011301493
000140 f5 40 37 bc 7e 63 56 bc 4a ce c8 bb 13 75 8f 3d
       -0.011184921 -0.013085244 -0.006128107 0.07004752
000150 36 eb 85 3c 19 a7 01 3c 87 61 37 3b a3 eb 00 3c
       0.016347509 0.007913374 0.0027981715 0.00786868
000160 3e 39 d3 3c d4 35 04 bc 8b 22 12 bd 95 78 ce bc
       0.025784131 -0.008069474 -0.035677474 -0.025203982
000170 ca 93 50 3c 3e 42 fb 3b ed 2a d2 3c 37 6c 0c bd
       0.012730548 0.007667809 0.025655234 -0.03428289
000180 83 16 4e bd 49 5e 5b bc 93 25 47 bd 86 98 21 ba
       -0.050314438 -0.013389179 -0.048619818 -0.00061643904
000190 4d f3 08 bd 04 d6 a7 bb 0b ba f9 bb 19 c1 73 3c
       -0.033435155 -0.005121948 -0.007621055 0.014877581
0001a0 b0 c1 85 3d 19 4d 46 bd 0f 76 8f bc f7 1e 4c 3c
       0.065310836 -0.04841337 -0.01751235 0.0124585545
0001b0 5a b5 93 bb 08 df 88 3d 55 b2 ff bc 25 7b 10 bd
       -0.004507703 0.06683165 -0.031212965 -0.03527369
0001c0 91 e7 5d 3d 80 78 36 3d 0e e1 19 3d 3c 82 17 bd
       0.054175917 0.04454851 0.037568145 -0.036989436
0001d0 70 be ca 3b c4 0a 9e 3c a9 47 1b 3d 8b ee 90 3d
       0.0061872527 0.019292243 0.037910137 0.070767485
0001e0 37 fb 02 bd 91 29 c7 bc 15 26 1e 3d 7d a9 82 ba
       -0.03197786 -0.024311813 0.038610537 -0.0009968724
0001f0 ce 06 2d 3d fe 79 41 3d ee 00 13 3d 5b b0 f3 3c
       0.042242818 0.04723548 0.03588956 0.029747179
000200 69 b0 28 3d 25 cb 9d 3d de 5d e4 bc b9 61 13 bb
       0.041183863 0.07704762 -0.02787679 -0.0022488667
000210 01 a1 56 3c 02 14 21 3d ae be 10 3c 21 66 0b bd
       0.01309991 0.03932572 0.008834524 -0.034032945
000220 53 74 eb bc ec 1d f6 bc 5a e1 da 3c 40 05 2c bd
       -0.028741991 -0.030043565 0.026718784 -0.041997194
000230 9e 69 4e bd d5 23 4a bd b8 c3 da bc 33 aa 18 bd
       -0.050393693 -0.04935058 -0.026704654 -0.03727169
000240 31 95 1a bb 18 5a 85 bc 89 2a 42 bd d8 6e 2a bd
       -0.002358746 -0.016278312 -0.047403846 -0.041609615
000250 b4 8a 23 3c 3c 3f 99 bc e3 12 e5 bc 7c 79 2a bc
       0.0099818 -0.01870691 -0.027963107 -0.010404941
000260 01 82 49 bb fe c5 90 3d 9e 62 8f ba e0 9d 1d 3d
       -0.0030747654 0.07069014 -0.0010939424 0.03848064
000270 4d 03 83 3c fe dc 84 3d aa c9 ce 3b 91 d4 87 3d
       0.015992785 0.064874634 0.0063106613 0.06632341
000280 a1 49 a4 bc e5 4e 3b bd 5a c6 66 3c 1b d2 2b bc
       -0.02005464 -0.045729537 0.014085377 -0.010487105
000290 c9 9f 22 bc 16 fb 63 bc 4c 26 81 bc fc 63 a3 3b
       -0.009925791 -0.013914844 -0.015765332 0.0049862843
0002a0 36 1d ac bc 08 52 38 3c 85 98 28 bc a0 b0 14 bd
       -0.021010023 0.0112500265 -0.01029027 -0.036301255
0002b0 0d e2 81 bc 1e 0c 93 3a 22 ae eb bc 96 0c 12 bd
       -0.01585486 0.0011218821 -0.028769556 -0.035656534
0002c0 c3 67 28 3d c0 26 1c bd 7d 18 91 3c 63 ac 16 3d
       0.04111458 -0.038122892 0.017711872 0.036785495
0002d0 cf 61 5b 3c 62 26 02 3c c4 34 16 bd 43 54 83 3b
       0.013390019 0.0079437215 -0.036671415 0.0040078475
0002e0 a0 75 f1 bc 0e 66 35 bd f2 a9 f5 3b 07 96 7f 3c
       -0.029475033 -0.04428678 0.0074970657 0.015599734
0002f0 58 4d 61 bd 11 23 b5 bc 1f 43 c2 bc 52 1a 4b bc
       -0.0550054 -0.022111448 -0.023713646 -0.012396412
000300 0b 9c 59 3d 01 4b 08 bd 0c 18 07 bc c5 2d c0 3c
       0.05312733 -0.033274654 -0.008245479 0.023459325
000310 b5 5d 8c 3b 5f 98 6b 3d e4 38 de bc 4b f4 49 3d
       0.0042836317 0.05751836 -0.027126737 0.04930524
000320 73 3d ae 3c 2b d6 44 3d ed 06 25 3d 44 83 b3 3a
       0.021269536 0.04805581 0.040289808 0.0013695736
000330 da 9f db bc 04 80 c3 bc 9e c0 23 3d 51 33 9d 3c
       -0.026809622 -0.023864754 0.039978616 0.019189509
000340 65 e8 90 bc bb cc 12 3c 84 78 da 3a 41 e0 18 bd
       -0.01768894 0.008959944 0.0016667997 -0.03732324
000350 74 f0 3d bc 74 76 43 3c 75 60 36 bb 82 8f 8c bd
       -0.011592973 0.011930097 -0.002782849 -0.068633094
000360 02 44 ee ba a0 05 17 3c 07 6d 5a 3d 1c 61 71 3c
       -0.0018178227 0.00921765 0.053326633 0.014732625
000370 fc db 35 bd 52 c4 fa 3a 2a f1 d4 3c 2b f0 36 3c
       -0.044399247 0.0019131994 0.025993902 0.011165659
000380 e3 41 10 bd 53 a4 ab bc ca 20 3e 3b ee 43 d1 3c
       -0.035219084 -0.02095238 0.0029011243 0.025545087
000390 da 79 84 3d 38 66 d4 3c 07 d3 cf 3c 4d dd 01 bb
       0.06468554 0.025927648 0.02536918 -0.0019815743
0003a0 2b 93 b4 3d 47 5b 8e 3c 5e f0 69 3c 05 21 e0 bb
       0.088171326 0.017377509 0.014278499 -0.0068398737
0003b0 50 c9 59 bd f9 db 99 3c a8 52 f0 3c dd 48 5f bc
       -0.053170502 0.018781649 0.029336289 -0.013628212
0003c0 ad 52 30 bd 53 a8 a7 bd 4e 85 af bc 67 14 5f bd
       -0.043047596 -0.08186402 -0.02142587 -0.054462817
0003d0 4d 63 34 3c 80 6c a3 bd cd 80 a7 bd d7 d6 b4 bb
       0.011010003 -0.07979679 -0.08178864 -0.005518775
0003e0 6e df ff bb 0d 41 ba bc b9 f9 b4 bb ed 2a 27 3d
       -0.0078086173 -0.022736097 -0.0055229333 0.04081242
0003f0 67 6b 64 3d 7a 8e c5 3c 1a b8 0c 3d 84 33 54 bd
       0.05576649 0.02411579 0.03435526 -0.05180694

bias f4 [32]
000000 3d 00 f8 bd ff 8d 98 be 50 e0 17 be ac c4 92 be
       -0.121094204 -0.29795834 -0.14831662 -0.28665674
000010 92 79 90 be 04 bb 64 be db aa 6f be 17 ae 09 be
       -0.2821775 -0.22336966 -0.2340502 -0.13445316
000020 7b 27 4d be 75 cf 40 be 5e d2 91 be 0f 03 51 bc
       -0.20034592 -0.18829139 -0.2848081 -0.012757077
000030 cf 3c 74 bd 5d 2c 14 be fc 79 d1 bd 95 e2 0a be
       -0.059628304 -0.14470048 -0.10228345 -0.13562997
000040 5f d5 59 3c 9d 79 83 bd 02 27 2c be 29 c3 7d be
       0.013295501 -0.0641968 -0.16811755 -0.24781479
000050 fe e3 fd bd a7 92 35 be 7d e1 90 bd 83 fb a0 be
       -0.12397002 -0.17731725 -0.070742585 -0.31441888
000060 2d 00 73 be c6 5a 3a be 8b e1 38 3c 6a 77 c9 bd
       -0.23730536 -0.1819869 0.011284242 -0.098372295
000070 26 59 83 be 34 3f 61 be 9f ac 6c bd 2d 59 69 3d
       -0.25653952 -0.21996766 -0.05778181 0.05696981

weight f4 [64, 32, 5, 5]
000000 d6 24 9b 3c 41 8d db bb b4 0b 1a 3d f3 e9 c5 bc
       0.018938463 -0.0067001884 0.037608817 -0.024159407
000010 3c f7 82 bd 4b e3 e5 3a 13 aa e5 bc 18 39 aa 3c
       -0.063948125 0.0017539052 -0.0280352 0.020779178
000020 ec 03 95 bc 94 23 06 3c 0b fb 25 3c 9e b0 1a bc
       -0.018190347 0.008187193 0.010130654 -0.009441523
000030 47 65 69 3b 98 25 c9 3c dc 34 ef 3b a3 1c 44 bd
       0.0035613345 0.024554059 0.0073000025 -0.047878873
000040 4c ce 1a bc 61 ea 25 bd 95 54 d2 bc 0c 88 9e 3c
       -0.009448599 -0.040506724 -0.025675097 0.019351982
000050 78 60 f4 3a 6d 2b 2c 3d 56 e8 6d bc f1 9f 9e 3c
       0.0018644473 0.0420336 -0.014520725 0.019363375
000060 93 7b a3 3d 01 95 c0 bc 6e ef b4 bc 29 07 80 bd
       0.07982554 -0.02350855 -0.022086825 -0.06251366
000070 ae 65 1e bd 69 ab 86 3b c3 b9 69 3d 5b dc d1 bc
       -0.038671188 0.004109789 0.05706192 -0.025617769
000080 a9 ba 38 bd 10 9f 37 3d ea 1a 88 bc 0d e7 09 bb
       -0.045099888 0.04482943 -0.016614396 -0.0021042258
000090 7c f8 33 3d d7 91 22 3d 40 0f c7 3d ad 74 d1 3b
       0.043938145 0.039689865 0.097197056 0.0063920827
0000a0 19 f3 02 3b c9 3b 7b 3d cc 6d be 3b e6 29 17 3d
       0.0019981323 0.061336312 0.0058114287 0.03690519
0000b0 d4 07 5c 3c 3a 1c 59 bb cb 74 3b bd 05 dd 6a 3d
       0.013429601 -0.0033128397 -0.04576568 0.057339687
0000c0 5d 20 89 bc 5a be 59 bd 2f fc 29 bd 0d 67 39 bc
       -0.016739065 -0.05316005 -0.041500267 -0.011316073
0000d0 e5 ee 0f b9 76 3f 95 3d 2d d1 36 bd 64 d5 54 bd
       -0.00013726538 0.07287495 -0.04463308 -0.051961318
0000e0 60 28 a0 bc 6c 79 4e bd 79 8b 37 bd 41 12 bb bc
       -0.019550502 -0.050408766 -0.044810746 -0.022835853
0000f0 af 62 c9 3d 8f 0e b5 3b 32 e9 7e bd ed 94 dc ba
       0.098332755 0.005525417 -0.06223411 -0.0016829051
000100 f2 f1 ae 3c eb 6a 1a 3d 47 04 38 bd 78 eb 6d bd
       0.021355603 0.03769962 -0.044925954 -0.05808589
000110 ed 9a 97 bd 96 2e 6b bd bb a9 6e 3d 73 a6 88 3c
       -0.074025966 -0.057417475 0.058267336 0.016680932
000120 25 67 b5 bc e1 8b b7 bc 41 7d 5b 38 7d 2c 2d bb
       -0.02214391 -0.022405567 5.233032e-05 -0.0026424222
000130 ed 67 c9 bd b3 ae c4 bc df dd ab bc 8a 05 fa bb
       -0.098342754 -0.024009084 -0.02097982 -0.007630055
000140 4e 39 13 3d b9 0c c6 bd aa 21 ad bd 9a e3 29 3d
       0.035943322 -0.096703954 -0.084536865 0.041476823
000150 56 70 0b bd f8 aa 24 bd ec be c2 bd b0 bc 67 bd
       -0.03404268 -0.04020211 -0.09509072 -0.05657643
000160 3b 49 d7 3d ab a3 f4 3c e1 9d 92 bc 10 0a 93 3c
       0.105120145 0.0298632 -0.017897548 0.017949134
000170 fc 11 c3 bc cd d4 b4 3a a2 43 8c 3d 9f 3f 0b 3b
       -0.023812287 0.001379633 0.068488374 0.0021247638
000180 03 95 d6 3c 8b e8 73 3d 75 48 2c 3d 7e 17 31 3c
       0.026194101 0.059547942 0.042061288 0.010808824
000190 a2 33 45 bd 73 6b 32 3d 70 13 1a 3d 64 1d a9 bb
       -0.048144944 0.043559503 0.037616193 -0.0051609743
0001a0 46 8d 3d bd ae 99 82 3d 87 ea ac 3d da 02 b3 3d
       -0.046277307 0.06376968 0.0844317 0.08740778
0001b0 62 65 88 bc 2c a1 86 3c 51 db e7 bc 47 dd 0c 3d
       -0.016649906 0.016434275 -0.02830282 0.034390714
0001c0 e5 4d 2e 3d d2 9a 97 bd 65 e0 1e bd bb 95 5a bd
       0.042554755 -0.074025765 -0.038788218 -0.05336545
0001d0 cd a1 f6 3c 4b f8 1d bc 39 71 4f 3c c0 d3 12 3d
       0.03010645 -0.009641717 0.012661272 0.03584647
0001e0 42 02 d8 bc 05 b7 8f 3d 46 71 46 3d dc ab 53 3d
       -0.026368264 0.0701733 0.04844787 0.05167757
0001f0 e6 d6 7d bd c1 1f 82 3c 75 aa a1 3d c8 be f3 3d
       -0.06197252 0.015884282 0.0789384 0.11901623
000200 77 f1 41 3d 60 58 40 bc 1b 69 8a 3d 35 44 4a 3d
       0.04734942 -0.01173982 0.067583285 0.049381454
000210 17 5d 54 bc cb a8 ea bc a8 e1 b8 bc 12 1f 1d bd
       -0.0129616475 -0.02864494 -0.022568539 -0.03835971
000220 c4 cd 29 bd 78 62 d8 bc 1d 77 39 3c 6e 17 e2 3d
       -0.041456 -0.026414141 0.011319903 0.11039625
000230 76 b7 22 bd bc a7 89 bd 49 f2 87 bd d9 1f ff bb
       -0.039725743 -0.06721446 -0.06638009 -0.007785779
000240 80 fe 5d 3d 3b 36 a8 3b ab 7e 47 bd ad 5a 3a bd
       0.05419779 0.005133418 -0.048704784 -0.04549663
000250 9c c5 f2 bc b0 91 c8 bb ed 13 7e 3c 2a 77 be 3c
       -0.029635243 -0.006120883 0.01550768 0.023250181
000260 2f be b9 3a 9b 9e 55 bd c6 9a 69 3c 62 69 b7 bb
       0.0014171059 -0.05215321 0.014258092 -0.0055972794
000270 e0 03 59 bd e6 a3 c4 bc 04 0f 52 3c 84 c6 81 bc
       -0.05298221 -0.024003934 0.012820963 -0.01584173
000280 01 22 e4 3c 79 7e 89 bd 20 02 80 3b 2b f6 12 bd
       0.027848246 -0.06713576 0.0039065033 -0.035879295
000290 f4 23 b1 39 f8 fb 3d bc 6f 84 c3 3c d3 7d 60 3c
       0.00033786858 -0.011595719 0.02386686 0.013701874
0002a0 19 85 18 bd 11 b2 f5 3c 11 f4 ad 3c 1a dc a0 3c
       -0.037236307 0.029992135 0.021234544 0.019636203
0002b0 a6 da 82 3c 94 82 3d bd 56 e9 41 ba 8e 4b db bb
       0.0159734 -0.046267107 -0.00073971355 -0.0066923564
0002c0 b1 62 3e 3d 8b ae b9 bc 78 d0 51 bc 7b e4 49 3c
       0.04648084 -0.022666236 -0.0128060505 0.01232254
0002d0 a1 33 0d 3d 8e 4d 71 3d 51 df 2c bd 26 9b c8 ba
       0.034473065 0.058911853 -0.04220516 -0.0015305027
0002e0 75 24 84 bb e7 f4 8b 3c 46 a9 91 bb 01 7e bb bc
       -0.0040326663 0.017084552 -0.004445228 -0.022887232
0002f0 92 7a b8 bb b2 e9 cc bc 94 dd 8e 3c 2d 53 11 3d
       -0.005629846 -0.025013778 0.017439641 0.035479713
000300 ea f7 a2 bb 9b ed 73 bd 22 ab 9f bc b3 98 19 3d
       -0.0049734013 -0.05955277 -0.019490782 0.03749914
000310 86 29 53 bd 80 75 e0 3c 5d d7 df 3b 98 dc ef bc
       -0.05155327 0.027399778 0.006831093 -0.029279992
000320 75 bd 0b 3d 0d 15 0d bd 13 0b 02 3d a7 77 c7 bc
       0.034116227 -0.034443904 0.031748842 -0.024349047
000330 aa 04 73 3c c9 50 b1 bc 6e 75 98 bd d0 2d 3c bd
       0.014832655 -0.021644967 -0.07444273 -0.045942128
000340 6e 30 23 bd 2a 2d 65 bc 3c f3 4b bc 87 04 da ba
       -0.039841108 -0.013987819 -0.012448128 -0.0016633429
000350 2c 02 a0 bb 09 bb 17 3a 63 bb 20 bd 09 5d 9d 3c
       -0.0048830714 0.0005788063 -0.039241206 0.019209402
000360 40 fe 3a bd fd c8 fb bc 94 6e 04 bd 20 19 3f 3c
       -0.045652628 -0.030735487 -0.032332018 0.011663705
000370 dc e1 0b 3d 29 fb 5f 3d b5 b2 70 3c 4d 95 27 bc
       0.034150943 0.054682884 0.014691045 -0.010228467
000380 c6 8d 5b 3d a0 42 50 bd 21 fa 0b bd 53 3c f0 3c
       0.053602003 -0.05084479 -0.03417409 0.02932564
000390 50 44 49 bd 52 5b 2a bc 91 81 f0 bc 70 c9 3b bd
       -0.049137414 -0.010397749 -0.029358657 -0.045846403
0003a0 1f 5b bc 39 41 a7 0a 3d db 06 75 bd d5 ca 83 bd
       0.00035926045 0.033850912 -0.05982099 -0.064351715
0003b0 61 f3 9e bd f1 fd 56 3c e8 d7 41 b9 5d 2e 3b bd
       -0.077612646 0.013122068 -0.00018486346 -0.045698512
0003c0 4e d3 ea 3c 33 a8 8c 3d 56 a1 c6 3c b6 99 26 3d
       0.028665211 0.06868019 0.024246853 0.040673934
0003d0 42 d8 43 3b 88 5b 94 bb 71 e3 55 3c 8d e1 5a bc
       0.0029883538 -0.004527513 0.013054715 -0.01335944
0003e0 29 3b 39 3c f7 9d 46 bd 10 2f 32 3d a0 87 d7 3c
       0.011305609 -0.04849049 0.043501914 0.026309788
0003f0 6d 7b ab 3c f2 62 5f 3d 99 8b 31 bd 95 db fb 3c
       0.020932877 0.05453772 -0.04334602 0.030744353

bias f4 [64]
000000 49 5e 53 bd 92 29 97 bc fb e5 c4 bd 56 ac 18 be
       -0.05160359 -0.01845244 -0.09614178 -0.14909491
000010 be 18 a5 bd 45 a2 bb bd ea bc 10 be 75 cb 20 bd
       -0.0806136 -0.0916181 -0.14134565 -0.03925653
000020 91 d9 98 bd 2c 9a 19 be bb a4 ff bd 7f 43 fe bd
       -0.074633725 -0.15000218 -0.12482592 -0.124152176
000030 77 78 f2 bd 98 be e9 bd c1 99 39 bd f3 73 fe bc
       -0.11839383 -0.11413306 -0.045312647 -0.031061148
000040 6a 7d 2c be b3 ae 29 be 3e 96 ce bd 27 4c 23 be
       -0.16844717 -0.16570549 -0.1008725 -0.15947019
000050 7d 64 32 be fe 0b 68 be 38 bf 3b be 39 35 0c be
       -0.17421146 -0.22660825 -0.18334663 -0.13692178
000060 98 f2 32 be 74 b6 03 be 44 68 dd bd 9b 40 c5 bd
       -0.17475355 -0.12862569 -0.10810903 -0.09631463
000070 4d 0e 6a bd 23 db b3 bd d8 12 52 bd d3 85 5a bd
       -0.057142545 -0.087820314 -0.051287502 -0.05335028
000080 01 c0 5c bd 31 ae 3c bd fe 7d 15 be 96 9a 00 be
       -0.053894047 -0.04606456 -0.14598843 -0.1255897
000090 77 6f 2c bd 7f 48 a5 bd d7 dc f5 bd 05 cd ea bd
       -0.04209849 -0.08070468 -0.120050125 -0.114648856
0000a0 de d6 1a be d8 c9 4e bd c7 0a 2e be bd b0 06 be
       -0.15121028 -0.050485462 -0.16996299 -0.13153358
0000b0 a3 8b 9d bd d8 25 56 bd 1e 5e c4 bd 31 dd 01 be
       -0.07692649 -0.052282184 -0.09588264 -0.12682034
0000c0 3e d6 ec bd c9 94 47 be 25 2f 27 be 7e 62 13 be
       -0.11564301 -0.19490351 -0.16326578 -0.1439304
0000d0 74 91 2f be be 4b 4f bd 7e 9d de bc c2 7c d2 bd
       -0.1714533 -0.050609343 -0.027174708 -0.10277702
0000e0 fe ef d6 bc ca 57 f6 bd 93 a6 8f bd d0 f5 14 be
       -0.026237484 -0.12028463 -0.070141934 -0.14546895
0000f0 71 ef 27 bc 25 94 d6 bd 2f dc 2d be 99 05 de bd
       -0.010249958 -0.10477475 -0.16978525 -0.108409114

weight f4 [64, 1024]
000000 be f4 f2 bb 81 95 03 3d 4c fb 8a bb d3 7a b8 3c
       -0.0074144294 0.032125 -0.0042413827 0.022519505
000010 4d c0 2d bb 99 b9 94 3d 9e 75 7d bb d4 8f 27 bd
       -0.0026512325 0.072619624 -0.0038674842 -0.04090865
000020 f2 95 10 3d 59 8f e1 bc e9 b8 23 3d ce 42 3a bd
       0.03529925 -0.027534174 0.039971266 -0.045473866
000030 e7 3c ff bb 4c 62 37 3c e8 49 a8 bd 6b 19 07 bd
       -0.0077892425 0.011192869 -0.082172215 -0.032983225
000040 d6 ef 62 3c 3a b2 12 3d 5a e5 b7 3c 8f 74 15 bb
       0.013851127 0.0358145 0.02244823 -0.002280507
000050 53 83 8a bc e8 51 ef 3b 8d da fa bc 11 e0 0a 3d
       -0.016908323 0.007303465 -0.030621791 0.033905093
000060 53 d5 09 bd 12 93 d5 bc 12 39 96 3c 95 3b 1c bd
       -0.033650707 -0.026071105 0.01833776 -0.03814276
000070 22 5b 45 3d f9 80 d5 3c 82 eb df bc 0c 6c 06 bd
       0.048182614 0.026062476 -0.027333979 -0.032817885
000080 fb 34 82 3c 1f eb 1e 3c b4 d7 c7 bb 2b 68 47 bc
       0.015894404 0.009699612 -0.006098712 -0.012170832
000090 de b3 49 3d 62 4a 3b bd 7f ad 20 3c d5 1c 64 3d
       0.0492438 -0.045725234 0.00980699 0.05569156
0000a0 19 44 3a 3a d7 4e 39 3c 86 35 f5 bc 3c e6 c5 bc
       0.0007105484 0.011310301 -0.029932749 -0.024157636
0000b0 aa 95 48 3d d2 d5 e6 ba 2b 92 18 bd b5 11 ae bd
       0.048970856 -0.0017611331 -0.03724877 -0.08499471
0000c0 21 72 e2 bc a2 b0 b0 bd d5 7b 73 bd e1 4a 6e 3d
       -0.027642312 -0.0862744 -0.059444267 0.05817688
0000d0 68 b2 73 bd 06 95 02 ba e5 78 c2 3d 12 f6 15 3d
       -0.059496313 -0.00049813127 0.09495715 0.036611624
0000e0 5a 98 79 3d 28 6d 34 3d 2f 97 95 bd 3f 0c 1e bd
       0.06093631 0.044049412 -0.073042266 -0.038585898
0000f0 b1 96 b3 3c a7 b7 cc bc b3 71 cd 3c 02 6b 98 3b
       0.021922441 -0.024989916 0.02507863 0.004651428
000100 35 f5 c5 3b 51 fe fe bc 44 4b 3d bd 00 8e 7b 3c
       0.006041194 -0.031127127 -0.046214357 0.01535368
000110 77 b1 d0 3c 25 4d fc bc 11 fd 09 bd 53 f1 f3 3c
       0.025475247 -0.030798504 -0.03368861 0.029778158
000120 ed 95 11 3d 96 a7 e6 bc b2 cd a3 bc 3a 0e 72 bd
       0.03554337 -0.028156083 -0.019995544 -0.0590956
000130 ca 52 9b bb 77 f6 9a bc 78 30 c4 3c 1c 11 a2 bb
       -0.004740094 -0.018916352 0.023948893 -0.0049458873
000140 57 e5 9e 3d 87 0d 72 3d 7e d0 2c bc e0 ac 51 3d
       0.07758587 0.059094932 -0.010547755 0.051190257
000150 5d 75 2e bc 76 ad 02 bb a4 cb af bc d8 e6 12 bb
       -0.010648099 -0.0019939817 -0.021459408 -0.0022415426
000160 54 e7 47 3d 84 b4 97 3d 99 71 49 3d a5 ab 3c bd
       0.048804596 0.074074775 0.0491806 -0.04606213
000170 b9 49 f8 bb 0e e9 99 bd 96 cb 4f bd 69 7e 32 bb
       -0.007577148 -0.07515155 -0.050731264 -0.002723599
000180 16 cc 82 3c 18 d9 db bc f5 d7 7c bb af 7c c5 bc
       0.015966456 -0.026836917 -0.003858087 -0.024107305
000190 6d a3 dd bb 5d 14 79 bd b4 54 d2 3a 48 db 88 bc
       -0.0067638666 -0.060810436 0.0016046972 -0.016706124
0001a0 df 54 0a 3b 04 8c 8f 3c 13 ae b3 bc c8 ed 9a 3c
       0.0021107716 0.01752282 -0.021933591 0.018912211
0001b0 7b 59 d8 3c 50 d5 18 bd 14 78 2f bd 34 5b 58 bc
       0.026409855 -0.037312806 -0.042839125 -0.013205338
0001c0 a9 44 c3 3c 6b 20 09 3c e7 47 43 3c f9 4b 93 bb
       0.02383645 0.008369545 0.011918998 -0.0044951406
0001d0 60 47 62 3d 8e 84 f7 bc b5 e8 f9 bc 40 de 61 bb
       0.05524385 -0.030214574 -0.030506471 -0.0034464747
0001e0 78 a8 2c 3d b0 5c b6 bd a5 eb 1b bd 8b e3 76 3c
       0.04215285 -0.089043975 -0.038066525 0.015068899
0001f0 4a 05 bd 3d 1e 45 16 3d 08 c9 a8 3c 3f aa 9f 3c
       0.092295244 0.03668701 0.020603672 0.01949036
000200 c1 97 dd bc ed 05 45 3c 4c ce 63 3d 8c b5 ea 3c
       -0.027049901 0.012025339 0.055616662 0.028651021
000210 d9 93 85 bc cf ba e5 bc 13 58 5c bb f1 e4 15 3d
       -0.01630585 -0.028043179 -0.0033621832 0.03659529
000220 39 c9 ca 3c b6 03 6c bc ee 19 ce 3d d4 89 0f bc
       0.024754154 -0.014405182 0.100635394 -0.008760888
000230 40 56 65 3c bb c5 fa 3c 1a 8d 4d bc 54 9b a0 bb
       0.013997614 0.030611863 -0.012545848 -0.004901329
000240 60 39 8b bc 63 af e3 3c 08 da 6d 3c 2c c6 74 bc
       -0.016995132 0.027793592 0.014517315 -0.014939826
000250 50 0c b0 bc 4d 3f 0b be b9 e4 30 bd fc 04 b3 bb
       -0.021490246 -0.13598366 -0.043186877 -0.0054632407
000260 84 f8 08 bd 58 59 a6 3d a9 0b 23 bc fc 92 c1 3c
       -0.033440128 0.0812251 -0.0099515105 0.023629658
000270 3d a1 5d 3c 43 be fd 3c 6d 71 0e 3d 89 cc 0e 3d
       0.013527212 0.030974513 0.03477614 0.03486303
000280 a3 68 25 bc cf 7c a0 3c 53 bc 11 3c 61 73 8e bd
       -0.010095748 0.019590763 0.008894998 -0.069556005
000290 6e 3c 9c bc 15 ee 62 3d aa ac 6b 3d 9c 98 81 3c
       -0.019071784 0.055402834 0.057537712 0.01581984
0002a0 d8 ca 93 39 36 27 28 3d b5 28 c7 3c 70 be 0d bd
       0.00028189155 0.04105302 0.024311403 -0.034605443
0002b0 01 2f 67 bd fa 38 2a 3c ae 1a a2 3c 7f c6 65 3c
       -0.05644131 0.010389561 0.019788112 0.014024376
0002c0 bb 9a 9b bc de eb b4 bc 19 74 ad 3b f0 fc 76 bc
       -0.01899468 -0.022085126 0.005293381 -0.015074953
0002d0 5c 8e 80 3c 83 37 24 3d b7 0b c3 bb 2b b1 1e 3c
       0.015692882 0.040092003 -0.0059523243 0.009685795
0002e0 36 ae 86 bc 0e 66 30 3d 37 a8 c3 bc b9 55 84 bc
       -0.016440492 0.043066077 -0.023883922 -0.016154157
0002f0 a4 16 cb bd 17 fe 5c bd 13 55 d1 bd a0 3f e6 3c
       -0.09916428 -0.053953256 -0.10221305 0.02810651
000300 2c 8a b4 bc a2 0e 98 bc c0 9b f1 bc 93 88 c3 bb
       -0.022038542 -0.018561665 -0.029493213 -0.0059672086
000310 59 9a f3 3c 9f 7a 94 3c 94 72 fe bb 40 dc 19 bc
       0.029736685 0.018124877 -0.0077651236 -0.009390891
000320 06 b4 84 3c b1 83 57 3c 09 1e 16 3d 2b c7 fc bb
       0.016199123 0.013153956 0.036649738 -0.0077141724
000330 34 c9 d3 3c 5f fd fa 3c 54 4a 7b 3c cf c3 4e bd
       0.025852777 0.030638395 0.015337545 -0.050479706
000340 5f 06 01 3d bc 82 23 3c f8 0b 83 bd 02 4a 93 3c
       0.031500217 0.0099799 -0.06398767 0.017979626
000350 56 e9 98 3d 9e 42 6c 3d 67 14 69 3d b5 87 d1 bc
       0.0746638 0.05768072 0.056904223 -0.025577405
000360 93 ae 29 3d 27 d8 a4 bc 95 ed 22 3d 4c da 03 3c
       0.041426253 -0.0201226 0.039777357 0.0080476515
000370 51 9f 00 ba f0 ce a8 bd 39 ae 8b bd 49 b0 b8 bc
       -0.00049065525 -0.08242595 -0.0682034 -0.022544997
000380 ee 20 55 bd 6f 9f 00 3d bd 4e 5b bd 58 34 2d 3b
       -0.052033357 0.031402048 -0.053541888 0.0026428904
000390 d9 0c ed bc e1 f2 4e bb 49 92 a8 bc 4b 11 e0 3c
       -0.02893679 -0.0031577873 -0.020577567 0.027351996
0003a0 79 a1 66 bd fc 6e 58 3d 58 40 30 3c 69 8d 8e 3c
       -0.056306336 0.052840218 0.010757528 0.017401414
0003b0 9a 98 0b bd 20 af 4c bd 18 7e 81 bc 9c 43 49 3d
       -0.03408108 -0.0499717 -0.015807196 0.049136743
0003c0 1a 29 e3 3c 5e ea 04 bd 8a 5b 4e bd 3f a2 95 3a
       0.02772956 -0.032450072 -0.050380267 0.0011416151
0003d0 bd 04 52 bc 41 1c 37 bc 8c 4e 07 bc 9f 59 d4 ba
       -0.0128185125 -0.01117617 -0.008258473 -0.0016201026
0003e0 6c 8d 85 3c 03 cd 96 3d 05 22 4f 3d 2c 6e 01 bd
       0.016302787 0.07363322 0.050569553 -0.03159921
0003f0 5c b5 97 3d 11 57 da ba e8 aa 0e 3d 37 fd 27 3d
       0.074076384 -0.0016658028 0.034830958 0.04101297

bias f4 [64]
000000 5e c3 95 bb 7b f8 d3 bb 52 50 bf 3b 53 c1 6a bd
       -0.0045704087 -0.00646883 0.0058384323 -0.057313275
000010 1c d7 f8 bc b1 1f 69 bd 16 49 84 bc 97 43 a6 bc
       -0.03037601 -0.05691499 -0.016148131 -0.020295901
000020 02 04 1c 3d 9f 3d c5 3c ce 2a 47 bd 00 9a 3f bd
       0.03808976 0.024077235 -0.048624806 -0.046777725
000030 b3 cf ca 3c c6 13 3d 3c d5 16 9c 3c 9e 2e 99 3d
       0.024757242 0.011540359 0.019053856 0.07479595
000040 00 de 17 bc 39 eb 92 3d 46 45 8c 3b 91 a2 69 3c
       -0.0092692375 0.071737714 0.004280719 0.01425995
000050 70 fc ef bc 07 d9 fd bc a5 9a e2 3a db cb 87 39
       -0.029295176 -0.030987276 0.0017288519 0.0002590109
000060 f2 4f 42 3d 60 25 69 bd e3 1a 66 3d f3 d3 51 3d
       0.047439523 -0.05692041 0.056177985 0.05122752
000070 5c 2e a1 3b 38 6f 40 3c a6 c3 a3 3c 5e 45 d2 3a
       0.0049188565 0.011745267 0.019990753 0.0016042402
000080 14 ba bc bd 03 a8 79 3c f6 83 55 bd 15 09 b6 3b
       -0.09215179 0.015237811 -0.0521278 0.005555282
000090 61 d1 b7 ba 72 cf dc ba 86 c8 2a 3b 98 ee ba bb
       -0.0014024192 -0.0016846491 0.0026059463 -0.005704712
0000a0 cf f7 60 3d 29 29 11 3a 39 3b 3f 3d fd d5 99 bc
       0.05492383 0.00055374444 0.04668734 -0.018778795
0000b0 61 20 bf 3c e7 63 26 bc d1 db 39 bd 90 93 e0 bc
       0.02333087 -0.0101556545 -0.04537565 -0.027414113
0000c0 b0 2e 0b 3d 80 26 43 bd 69 00 26 bd cd 30 39 3d
       0.03398007 -0.04764414 -0.040527735 0.045212556
0000d0 cc 04 90 bc 33 ba 45 3d e7 7b 1f 3d f3 0a 0b 3b
       -0.017580412 0.048273277 0.03893652 0.0021216243
0000e0 26 ac bd 3a 5c 4f 14 3d 1a bb 23 bc 56 56 d1 3d
       0.001447086 0.036208495 -0.009993339 0.102215454
0000f0 3f bb 8c ba bb e0 4c 3d 17 21 8b 3d 9a b1 8d 3c
       -0.0010736956 0.050019007 0.06793421 0.017296601

weight f4 [10, 64]
000000 fc 2c 8f 3d db e9 e8 3d 21 1f 73 3e 5b a7 92 be
       0.06991002 0.113727294 0.23742343 -0.28643307
000010 ec 82 7b bc ce ec 3c 3e 26 98 2a be 9f e0 43 3b
       -0.015351038 0.18449709 -0.16659603 0.0029888523
000020 23 68 54 be 01 29 23 be f1 37 15 be b8 5d 54 3e
       -0.2074285 -0.1593361 -0.14572121 0.20738876
000030 e0 d7 98 3e 03 a2 2b 3e ac 80 0b be c4 19 89 3c
       0.298522 0.16761021 -0.13623303 0.016735919
000040 c8 db 97 3e e0 27 7e 3d 1b d4 83 be 39 30 49 3c
       0.29659867 0.062049747 -0.2574776 0.012279564
000050 0b 96 8d bc f8 64 4f bd da 4a 3d be 24 8e cb bd
       -0.01728346 -0.0506334 -0.18485585 -0.099392205
000060 e7 7b 44 be 75 2f 41 3e a6 dc 71 3d 57 8b 57 be
       -0.1918789 0.1886576 0.059048317 -0.21049248
000070 cb c2 11 3d b4 d7 77 3c 98 65 91 be 75 64 01 3e
       0.03558616 0.015127111 -0.28397822 0.12635978
000080 51 95 48 3e cd dd b0 3d d0 d6 9d 3d cb d9 15 3b
       0.1958821 0.08636055 0.07706988 0.002286541
000090 06 d4 0e bd be 2a ba bd be 45 0e 3e 5c 3d f9 3d
       -0.03487017 -0.09090184 0.13893792 0.121699065
0000a0 97 86 df bc ec 66 1f 3e 8c f6 46 3c 39 0f 88 3e
       -0.027285857 0.15566605 0.012143742 0.26574114
0000b0 31 a7 8b 3d 22 fa ae be e4 75 7e 3e 0d a0 1e bc
       0.068189986 -0.3417521 0.24849659 -0.009681714
0000c0 23 b9 4f be 33 7d e8 3d 05 5e cc bd e4 17 10 be
       -0.20285468 0.11352005 -0.0997887 -0.14071614
0000d0 9c 13 10 3e 93 e7 e9 bd b0 1a e1 bd 98 02 93 bd
       0.1406998 -0.114211224 -0.10991418 -0.07178229
0000e0 b3 5f 21 be b7 cb b0 3d ed 7e 8f 3d aa 5a 26 be
       -0.15759163 0.086326055 0.07006631 -0.16245523
0000f0 a6 84 94 be b3 73 67 be 9b 5a 0a be 29 33 74 bd
       -0.29007453 -0.2260273 -0.13511126 -0.059619103
000100 02 83 17 3e 4c b2 35 be 25 4e 82 be 88 d4 e9 bd
       0.1479607 -0.17743796 -0.25450245 -0.1141749
000110 66 1f d8 3e f1 8d ca bd dc de 97 3e e8 84 26 3e
       0.42211455 -0.098903544 0.29662216 0.16261637
000120 e9 f3 54 3d c5 7d 14 be 5b 1a 82 3e ae 5b 94 be
       0.051990423 -0.14501102 0.25410733 -0.28976196
000130 7d e0 88 be 69 c2 c5 3d 4d 86 c3 3b ba 2f 39 bd
       -0.2673377 0.096562214 0.0059669376 -0.04521153
000140 f9 0e 24 3d 17 4b a5 be 39 b9 bc bd 20 6c c0 be
       0.04005334 -0.32283852 -0.09215016 -0.37582493
000150 1b 2a 71 3e 81 0a 12 be ad 50 87 3e b6 10 d0 bd
       0.23551218 -0.1426182 0.26428738 -0.10159437
000160 f7 2e 83 be 74 56 99 3d a5 79 b1 be bb 37 68 be
       -0.2562177 0.07487193 -0.3466312 -0.2267751
000170 8e 49 08 be d4 c7 0a 3d e4 d3 36 3e c7 e1 27 be
       -0.13309309 0.033881977 0.17854267 -0.16394721
000180 82 a7 bf 3c 95 62 73 be f0 67 36 be 83 03 6e be
       0.023395304 -0.23768075 -0.17813087 -0.23243527
000190 30 36 29 be 10 6a 93 3e 38 74 d1 3e 1e 57 af be
       -0.16524577 0.28791857 0.4090898 -0.34246153
0001a0 20 ba dd 3d 35 43 d8 bd 35 25 1d 3d 5d 13 46 3e
       0.10826516 -0.10559694 0.03836556 0.19343324
0001b0 c9 05 a8 3d 93 ac 05 3e d1 61 93 3e 05 6a d8 bd
       0.082042284 0.13054113 0.28785565 -0.105670966
0001c0 50 5e 3c be b4 96 30 3e 4f 4e 8c 3e 9d dd 17 bd
       -0.18395352 0.17244989 0.27403495 -0.03707658
0001d0 9a 29 e0 bd 79 43 f0 bc d6 3a 6b be 69 05 03 be
       -0.10945435 -0.029329048 -0.22971663 -0.12795033
0001e0 32 bd 93 3c 07 fc dd 3d 05 64 2a 3e 97 d1 10 be
       0.018034551 0.10839086 0.16639717 -0.14142452
0001f0 52 53 9f bd 97 7c 1d 3e 8c ad 74 3c b7 43 09 be
       -0.07779564 0.15379559 0.014933955 -0.13404737
000200 0f ce 22 bd d5 c3 98 3d 77 ee 3a 3e c1 69 18 be
       -0.039747294 0.07459227 0.1825503 -0.14884092
000210 76 b7 43 be 69 21 6a be a5 46 cd 3d 64 82 ac bd
       -0.19112954 -0.22864307 0.1002324 -0.084233075
000220 3f f5 49 3e 2a 8a f1 3c 3b c4 02 3e 3f be a0 3d
       0.1972246 0.029484827 0.12770168 0.078487866
000230 b0 1c 8f 3e 2b 48 ae 3a 97 45 65 be cf f2 0a 3d
       0.27951574 0.0013296654 -0.22389828 0.033922967
000240 8a 70 04 3e 23 29 8c 3e 7c 1a 79 be d5 79 83 3d
       0.12933555 0.27375135 -0.24326509 0.06419722
000250 47 7d 30 3e f9 f6 88 3d c1 98 14 be 1e e3 8a bd
       0.1723529 0.06687731 -0.14511396 -0.067816004
000260 d6 d1 1e 3e 79 a4 67 3e 91 a5 66 3e 0c 1c eb bd
       0.15509734 0.22621335 0.22524096 -0.11479959
000270 7f 1e 9c 3c 96 ee 6b be 1f 09 1c be 81 55 3b bd
       0.01905751 -0.23040232 -0.15237854 -0.04573584
000280 5a 57 ea 3c 77 be 15 bc 1e 68 cc 3d ae c5 36 3c
       0.028606106 -0.009139649 0.09980796 0.011155529
000290 9b 53 46 3d 18 bf 95 bd b2 84 71 be dc 45 2a 3e
       0.048419576 -0.07311839 -0.23585775 0.16628212
0002a0 8d 84 da bd 33 5d b4 be 69 be e6 bd 8b a5 9d 3c
       -0.10669813 -0.35227355 -0.112667866 0.019243976
0002b0 40 bc eb 3d f1 17 3a 3e 5d 6f 78 3d 18 a0 1a 3e
       0.11510515 0.18173195 0.06065308 0.15100133
0002c0 0b e7 8b 3d 00 71 86 3d 60 10 03 3d 34 93 6f 3e
       0.06831177 0.06564522 0.03199804 0.23395997
0002d0 c2 d9 90 3d 13 83 15 be 79 e9 42 be 25 1f 96 3e
       0.07072784 -0.14600782 -0.19034375 0.29320636
0002e0 3f 95 8f 3e 5e 90 33 be 43 65 ed 3d d0 ec 74 3e
       0.28043553 -0.1753554 0.1159158 0.23918462
0002f0 a7 6f 01 3e f6 a0 84 be a3 13 ff 3d 46 a2 12 3e
       0.12640248 -0.25904053 0.12454917 0.14319715
000300 d2 2e d5 3d aa 3c 23 3d ea 82 b5 3d ba f1 2a 3e
       0.10409321 0.039852776 0.088628605 0.16693774
000310 66 f4 01 be 92 38 40 3e 72 61 1a 3e 46 59 8e 3d
       -0.12690887 0.1877158 0.15076235 0.06950621
000320 c2 3a 9e 3d c8 21 a7 bd 8d 15 46 be e2 d3 98 3d
       0.07726051 -0.0816074 -0.19344158 0.074622884
000330 d5 f4 19 be fc 4c eb bc b3 c5 73 bd b0 98 63 ba
       -0.15034802 -0.028723232 -0.059514713 -0.0008682115
000340 b1 df 32 be ae 68 ab 3d 0d 65 06 3d 06 e4 a7 bc
       -0.17468144 0.083695754 0.032811213 -0.020494472
000350 76 cf 08 be d7 24 89 3e ab 1e 29 3e 66 d7 a3 3d
       -0.1336039 0.2678592 0.16515605 0.08000068
000360 3c 34 05 3e fb ea a9 3c 78 3b e6 3d 5f 9f 26 be
       0.13008207 0.02074193 0.112418115 -0.16271733
000370 b8 15 23 be 48 d5 30 3e be 99 53 bd a1 7d be 3d
       -0.15926254 0.1726886 -0.05166029 0.093013056
000380 05 12 1b be 7b 10 55 3e de d4 df 3b af b0 ea 3c
       -0.15143593 0.20807068 0.0068307957 0.028648702
000390 09 8a f1 3c 95 d4 05 3e fa f6 a8 3c 88 0c 6f 3e
       0.029484766 0.13069375 0.02062558 0.23344624
0003a0 6a 0a 1a be 64 05 3c 3e 4a 3b 24 be 49 c2 58 bd
       -0.15043035 0.18361431 -0.16038242 -0.05291966
0003b0 36 63 5f 3e 38 35 0c 3e 54 ac 44 be db d1 c2 3d
       0.2181519 0.13692176 -0.19206363 0.09512683
0003c0 95 5f 43 3e 33 78 2f be 4b bf 3d 3e 07 bf 39 bd
       0.1907943 -0.17135696 0.18530004 -0.045348193
0003d0 d5 9d 08 3a 42 2b 40 be 2c 16 26 be de bf 3f be
       0.0005211507 -0.18766502 -0.16219395 -0.18725535
0003e0 be b2 b8 3d ff 08 bb bd 07 32 ef 3d db 22 9d 3d
       0.09018467 -0.09132575 0.11679464 0.07672664
0003f0 c7 79 fc 3d 99 22 c7 bb 22 6d 37 3e 71 1c a9 bd
       0.12327915 -0.0060771224 0.17912725 -0.08257378

bias f4 [10]
000000 77 72 06 be 82 21 60 3d 61 77 a4 3d 75 00 11 3e
       -0.13129602 0.054719456 0.08030582 0.1416033
000010 52 9e 60 3e b9 eb 27 be 18 a1 a0 3d 79 73 a2 bd
       0.21935394 -0.16398515 0.07843226 -0.07932181
000020 1b 2d 13 be 37 14 f0 3c
       -0.14372675 0.029306514
